MachineLearning/main_code/neural_network_model_state_dict_pytorch.pt (torch_old, 957812 bytes, 8 tensors)

hidden1.weight f8 [256, 75]
0.1318484991788864 0.016565939411520958 -0.003027348080649972 0.08535157889127731 -0.007069460116326809 -0.07078328728675842 0.1679115742444992 0.11441376805305481
-0.10744009166955948 0.04609441012144089 -0.1369742602109909 -0.11297568678855896 0.11423174291849136 -0.22326619923114777 -0.1456059068441391 0.32229623198509216
0.07228311896324158 -0.24427291750907898 0.25361743569374084 -0.04640575125813484 -0.19194523990154266 -0.3338518738746643 0.14934246242046356 0.13223348557949066
-0.14960983395576477 -0.18845590949058533 -0.17672879993915558 0.1257651150226593 0.09040764719247818 -0.028969261795282364 -0.06350123882293701 0.019949834793806076
-0.3354281187057495 0.11231385916471481 0.07110249251127243 -0.004064782988280058 -0.2560870349407196 -0.11534415185451508 0.1553698629140854 -0.08709218353033066
0.12553924322128296 -0.08259401470422745 -0.12782488763332367 -0.12172435224056244 -0.04379746690392494 -0.08778597414493561 0.006380538456141949 0.0674019306898117
0.13914135098457336 -0.18484801054000854 0.092784084379673 -0.03548535332083702 0.160370334982872 0.2644652724266052 -0.06358031928539276 -0.05868943780660629
0.12506358325481415 0.1263299584388733 -0.2578757703304291 0.08763918280601501 0.010410653427243233 0.10907377302646637 -0.09658493846654892 0.10093896090984344
0.2217157781124115 -0.03013431280851364 -0.06704752892255783 0.040761955082416534 -0.07404311746358871 0.1906833052635193 -0.022715304046869278 0.08028120547533035
0.033956464380025864 0.07966455817222595 -0.011263218708336353 0.008534999564290047 0.062410805374383926 -0.1049259752035141 -0.09670639038085938 0.058060985058546066
-0.07537424564361572 0.029047101736068726 -0.09906675666570663 -0.07519969344139099 -0.0746857076883316 0.02746337279677391 -0.08059576898813248 -0.05684199929237366
-0.12917813658714294 -0.010267679579555988 0.07685280591249466 -0.07045294344425201 0.12456077337265015 0.051427677273750305 -0.1279912292957306 -0.08089350908994675
-0.0907449796795845 -0.09435000270605087 0.10305798053741455 0.10112299025058746 -0.08081069588661194 -0.015509062446653843 -0.08111052960157394 -0.072782501578331
-0.08899203687906265 0.02516448125243187 -0.045970652252435684 0.12325801700353622 -0.02145317941904068 0.0009964522905647755 -0.12146088480949402 -0.04606137052178383
-0.11274566501379013 -0.08242437988519669 -0.12387818843126297 -0.09003409743309021 0.08807025849819183 -0.1183573305606842 0.0847788155078888 -0.13631217181682587
0.034189216792583466 -0.001166661037132144 -0.02817491814494133 0.023651381954550743 0.1292058676481247 -0.10742772370576859 0.046142950654029846 -0.06751953065395355
-0.07316932082176208 0.003982629161328077 0.057039033621549606 -0.12883736193180084 0.12616826593875885 -0.11165603995323181 -0.0938301831483841 0.0419289730489254
0.006236568093299866 0.05376991257071495 0.04554477334022522 -0.011064527556300163 0.05717308446764946 0.12105763703584671 0.009150365367531776 0.006102095358073711
0.03765839338302612 -0.12856504321098328 0.005374153610318899 0.10412091016769409 -0.0020568817853927612 -0.044253211468458176 0.12352165579795837 0.00106048583984375
-0.06008201092481613 -0.029065333306789398 -0.04752407222986221 0.11984366178512573 -0.046475790441036224 -0.0009300261735916138 -0.08976991474628448 0.022390827536582947
0.08796970546245575 0.12475156784057617 -0.06794779747724533 -0.039689354598522186 -0.13253052532672882 0.017568930983543396 -0.126505047082901 -0.017905086278915405
-0.10211320221424103 -0.12368418276309967 -0.0810023844242096 -0.10956070572137833 0.006591305136680603 -0.02669704705476761 -0.020380906760692596 0.02000373601913452
0.09926830232143402 0.10458110272884369 -0.08289463818073273 -0.06921680271625519 0.010411709547042847 -0.09802735596895218 0.10278573632240295 0.0004981309175491333
-0.12865029275417328 -0.12167155742645264 -0.10158368945121765 0.060992226004600525 0.05884909629821777 -0.11839593946933746 -0.018579207360744476 -0.0670144334435463
0.056533798575401306 0.019352048635482788 -0.10066342353820801 -0.10306589305400848 -0.08721300959587097 0.023048847913742065 0.022010892629623413 0.0656488835811615
0.13150456547737122 -0.11909108608961105 -0.09687722474336624 0.052636146545410156 -0.02473922073841095 0.058935701847076416 -0.11944662779569626 0.09386870265007019
0.127774178981781 0.08471272885799408 0.04551286995410919 -0.09022460877895355 -0.03318312019109726 0.08758287131786346 0.07981167733669281 0.024692222476005554
-0.09404660761356354 -0.012973599135875702 -0.07209094613790512 0.001501619815826416 -0.11739689856767654 0.0038690119981765747 -0.11267030239105225 -0.11965485662221909
0.06368620693683624 -0.1938762664794922 -0.03347471356391907 0.12660682201385498 0.15981623530387878 -0.07239694893360138 0.0011309001129120588 0.1425357162952423
0.08638618886470795 0.002842036308720708 0.013468463905155659 -0.16832001507282257 -0.10451196879148483 0.048407480120658875 0.19557878375053406 -0.024739079177379608
-0.1429767906665802 0.13768085837364197 -0.0776672512292862 -0.08695564419031143 0.33997124433517456 0.1494164913892746 0.27804750204086304 -0.047136083245277405
-0.0822681114077568 -0.10077133774757385 0.2018064558506012 -0.08197546005249023 0.03361232206225395 -0.0012844187440350652 0.05877529829740524 0.03436821699142456
00000000: 0000 0060 69e0 c03f 0000 0060 a9f6 903f
00000010: 0000 0020 cfcc 68bf 0000 00e0 99d9 b53f
00000020: 0000 00c0 ddf4 7cbf 0000 0080 da1e b2bf
00000030: 0000 0060 207e c53f 0000 0080 384a bd3f
00000040: 0000 00a0 3181 bbbf 0000 00c0 af99 a73f
00000050: 0000 0060 5f88 c1bf 0000 0080 f9eb bcbf
00000060: 0000 00a0 4a3e bd3f 0000 00a0 fc93 ccbf
00000070: 0000 00e0 36a3 c2bf 0000 0060 80a0 d43f
00000080: 0000 0080 2581 b23f 0000 00c0 5544 cfbf
00000090: 0000 00a0 443b d03f 0000 00a0 7ec2 a7bf
000000a0: 0000 0060 a991 c8bf 0000 0040 d45d d5bf
000000b0: 0000 0060 a71d c33f 0000 00e0 06ed c03f
000000c0: 0000 0040 6a26 c3bf 0000 00c0 521f c8bf
000000d0: 0000 00a0 0c9f c6bf 0000 0040 1219 c03f
000000e0: 0000 00a0 f424 b73f 0000 0040 1eaa 9dbf
000000f0: 0000 0000 9e41 b0bf 0000 00c0 ba6d 943f
00000100: 0000 0080 a777 d5bf 0000 00e0 99c0 bc3f
00000110: 0000 00e0 c533 b23f 0000 00e0 3ba6 70bf
00000120: 0000 00e0 ba63 d0bf 0000 00c0 3187 bdbf
00000130: 0000 00e0 28e3 c33f 0000 0060 ac4b b6bf
00000140: 0000 0080 ab11 c03f 0000 00a0 e124 b5bf
00000150: 0000 00e0 905c c0bf 0000 00c0 5329 bfbf
00000160: 0000 0020 9f6c a6bf 0000 0040 2479 b6bf
00000170: 0000 00c0 7a22 7a3f 0000 00c0 4041 b13f
00000180: 0000 0040 62cf c13f 0000 0080 19a9 c7bf
00000190: 0000 00a0 b2c0 b73f 0000 00e0 222b a2bf
000001a0: 0000 00e0 0387 c43f 0000 00c0 ffec d03f
000001b0: 0000 00c0 cc46 b0bf 0000 00c0 8a0c aebf
000001c0: 0000 0060 1502 c03f 0000 0080 942b c03f
000001d0: 0000 0060 0981 d0bf 0000 0080 856f b63f
000001e0: 0000 0040 2e52 853f 0000 0040 42ec bb3f
000001f0: 0000 0060 cab9 b8bf 0000 00c0 22d7 b93f
00000200: 0000 00c0 2e61 cc3f 0000 0080 87db 9ebf
00000210: 0000 00e0 062a b1bf 0000 0040 c0de a43f
00000220: 0000 0060 7df4 b2bf 0000 0080 4f68 c83f
00000230: 0000 0040 ae42 97bf 0000 0020 4f8d b43f
00000240: 0000 00e0 bd62 a13f 0000 0080 e564 b43f
00000250: 0000 00a0 2b11 87bf 0000 0040 cc7a 813f
00000260: 0000 0020 4ff4 af3f 0000 00c0 6ddc babf
00000270: 0000 0000 c0c1 b8bf 0000 0060 2bba ad3f
00000280: 0000 0000 ba4b b3bf 0000 0000 86be 9d3f
00000290: 0000 0060 705c b9bf 0000 0080 4940 b3bf
000002a0: 0000 0040 9a1e b3bf 0000 00c0 5b1f 9c3f
000002b0: 0000 00a0 eca1 b4bf 0000 0000 651a adbf
000002c0: 0000 00c0 e888 c0bf 0000 00a0 3807 85bf
000002d0: 0000 0020 a0ac b33f 0000 0040 3409 b2bf
000002e0: 0000 0000 37e3 bf3f 0000 0080 ba54 aa3f
000002f0: 0000 0040 0462 c0bf 0000 00e0 6fb5 b4bf
00000300: 0000 0020 103b b7bf 0000 0060 5227 b8bf
00000310: 0000 0000 0262 ba3f 0000 0040 32e3 b93f
00000320: 0000 0080 02b0 b4bf 0000 0020 37c3 8fbf
00000330: 0000 00e0 a8c3 b4bf 0000 00c0 dfa1 b2bf
00000340: 0000 00a0 2ec8 b6bf 0000 00c0 b7c4 993f
00000350: 0000 0020 7789 a7bf 0000 0060 d68d bf3f
00000360: 0000 0080 d2f7 95bf 0000 0080 6c53 503f
00000370: 0000 0080 0f18 bfbf 0000 0020 5b95 a7bf
00000380: 0000 0060 e6dc bcbf 0000 00a0 c319 b5bf
00000390: 0000 0020 7bb6 bfbf 0000 0080 790c b7bf
000003a0: 0000 00c0 c58b b63f 0000 0080 aa4c bebf
000003b0: 0000 0080 10b4 b53f 0000 0060 ad72 c1bf
000003c0: 0000 00c0 3f81 a13f 0000 00c0 541d 53bf
000003d0: 0000 00c0 e2d9 9cbf 0000 0060 1138 983f
000003e0: 0000 0060 d189 c03f 0000 0020 6280 bbbf
000003f0: 0000 0080 0ca0 a73f 0000 00c0 f548 b1bf
00000400: 0000 0080 39bb b2bf 0000 00e0 1650 703f
00000410: 0000 0060 3834 ad3f 0000 0020 be7d c0bf
00000420: 0000 0020 4826 c03f 0000 0080 7d95 bcbf
00000430: 0000 0040 4105 b8bf 0000 00e0 b677 a53f
00000440: 0000 0000 848b 793f 0000 00e0 ba87 ab3f
00000450: 0000 0000 a551 a73f 0000 00c0 ffa8 86bf
00000460: 0000 0060 ca45 ad3f 0000 0020 a2fd be3f
00000470: 0000 0040 6dbd 823f 0000 00c0 82fe 783f
00000480: 0000 0000 f647 a33f 0000 00c0 d174 c0bf
00000490: 0000 0060 3503 763f 0000 0000 aba7 ba3f
000004a0: 0000 0000 98d9 60bf 0000 0060 5ba8 a6bf
000004b0: 0000 0080 1d9f bf3f 0000 0000 0060 513f
000004c0: 0000 00c0 11c3 aebf 0000 0080 4dc3 9dbf
000004d0: 0000 0040 1355 a8bf 0000 0000 13ae be3f
000004e0: 0000 00c0 accb a7bf 0000 0000 a079 4ebf
000004f0: 0000 0040 29fb b6bf 0000 0000 9fed 963f
00000500: 0000 00c0 2e85 b63f 0000 0000 b8ef bf3f
00000510: 0000 00e0 0665 b1bf 0000 00c0 2952 a4bf
00000520: 0000 00a0 c2f6 c0bf 0000 0000 97fd 913f
00000530: 0000 0040 5131 c0bf 0000 0000 b655 92bf
00000540: 0000 0040 1724 babf 0000 0040 c4a9 bfbf
00000550: 0000 0080 92bc b4bf 0000 00a0 2b0c bcbf
00000560: 0000 0000 7cff 7a3f 0000 0080 7856 9bbf
00000570: 0000 0080 bbde 94bf 0000 0000 dc7b 943f
00000580: 0000 00c0 a569 b93f 0000 00c0 d3c5 ba3f
00000590: 0000 0040 9538 b5bf 0000 0040 31b8 b1bf
000005a0: 0000 0000 bc52 853f 0000 0020 5218 b9bf
000005b0: 0000 0080 2a50 ba3f 0000 0000 a052 403f
000005c0: 0000 00e0 9c77 c0bf 0000 0000 de25 bfbf
000005d0: 0000 0080 6301 babf 0000 0080 5f3a af3f
000005e0: 0000 0000 7821 ae3f 0000 0040 324f bebf
000005f0: 0000 0080 6d06 93bf 0000 00a0 db27 b1bf
00000600: 0000 0080 fff1 ac3f 0000 0000 06d1 933f
00000610: 0000 0000 14c5 b9bf 0000 00c0 8662 babf
00000620: 0000 0080 9753 b6bf 0000 0000 1e9a 973f
00000630: 0000 0000 068a 963f 0000 0080 5dce b03f
00000640: 0000 0040 24d5 c03f 0000 00e0 c07c bebf
00000650: 0000 0020 f2cc b8bf 0000 0000 20f3 aa3f
00000660: 0000 0000 3d55 99bf 0000 0000 d22c ae3f
00000670: 0000 00e0 0d94 bebf 0000 0080 c707 b83f
00000680: 0000 0080 e75a c03f 0000 00c0 bbaf b53f
00000690: 0000 0080 764d a73f 0000 00c0 f518 b7bf
000006a0: 0000 00c0 60fd a0bf 0000 00c0 d46b b63f
000006b0: 0000 00c0 896e b43f 0000 0000 eb48 993f
000006c0: 0000 0040 7013 b8bf 0000 0000 e791 8abf
000006d0: 0000 0060 8d74 b2bf 0000 0000 409a 583f
000006e0: 0000 0020 b90d bebf 0000 0000 e8b1 6f3f
000006f0: 0000 0000 f6d7 bcbf 0000 0060 b3a1 bebf
00000700: 0000 0040 bd4d b03f 0000 0000 f0d0 c8bf
00000710: 0000 0000 9923 a1bf 0000 0000 a734 c03f
00000720: 0000 00c0 db74 c43f 0000 0040 9b88 b2bf
00000730: 0000 00c0 5687 523f 0000 0040 9c3e c23f
00000740: 0000 00c0 671d b63f 0000 00a0 2e48 673f
00000750: 0000 00a0 5a95 8b3f 0000 00a0 828b c5bf
00000760: 0000 00e0 4bc1 babf 0000 0080 ddc8 a83f
00000770: 0000 00c0 b908 c93f 0000 0080 3355 99bf
00000780: 0000 0040 104d c2bf 0000 00c0 869f c13f
00000790: 0000 0040 00e2 b3bf 0000 00a0 b942 b6bf
000007a0: 0000 00c0 16c2 d53f 0000 0060 1420 c33f
000007b0: 0000 00c0 87cb d13f 0000 0080 3822 a8bf
000007c0: 0000 00e0 850f b5bf 0000 0080 26cc b9bf
000007d0: 0000 0040 cbd4 c93f 0000 0000 58fc b4bf
000007e0: 0000 0060 a235 a13f 0000 0020 3e0b 55bf
000007f0: 0000 00c0 cb17 ae3f 0000 0000 b698 a13f

hidden1.bias f8 [256]
0.026785800233483315 -0.005109984893351793 0.0 -0.056418586522340775 -0.05911032482981682 -0.006161644123494625 0.0 -0.008860450237989426
-0.0599326528608799 -0.01906365156173706 0.007918049581348896 -0.0552440844476223 -0.012286843731999397 -0.034221529960632324 -0.007098800037056208 -0.007581313140690327
0.02295459620654583 -0.02560727670788765 0.004230216145515442 -0.030818471685051918 -0.013529850170016289 -0.031068027019500732 0.0 0.0
-0.035053495317697525 -0.012807918712496758 0.021515684202313423 0.0 -0.012588911689817905 -0.008968563750386238 0.0 -0.05897805839776993
-0.002689424203708768 -0.02634769305586815 -0.006579824723303318 -0.014806143939495087 -0.011952079832553864 0.0 -0.036318618804216385 -0.010571534745395184
0.036642592400312424 -0.011315456591546535 -0.06754862517118454 0.03836843743920326 0.00884830579161644 0.0 0.005208602175116539 -0.031764667481184006
0.0 0.025762101635336876 0.0 -0.03187401965260506 0.027166713029146194 -0.0034178621135652065 -0.0072067794390022755 0.0043765343725681305
0.0 -0.019002078101038933 0.01062108762562275 -0.0843987986445427 -0.04929647967219353 0.009885448962450027 0.013901639729738235 0.024319961667060852
-0.031016305088996887 -0.027121908962726593 0.03717074915766716 -0.04557529836893082 -0.005798048805445433 -0.05286683887243271 -0.02978925034403801 -0.04400976374745369
0.0 0.004879266954958439 -0.009704274125397205 0.004437154624611139 -0.042935434728860855 0.004084087908267975 0.014095722697675228 -0.028030669316649437
-0.0008590273791924119 -0.005295781418681145 0.0 -0.021331585943698883 0.0 -0.050687797367572784 -0.06650526821613312 0.034784428775310516
-0.017959685996174812 0.011739909648895264 -0.036448054015636444 -0.009432464838027954 -0.016880175098776817 0.026167050004005432 0.01937299594283104 -0.032867059111595154
0.0 -0.07204221189022064 0.0004984236438758671 -0.03817376866936684 0.0 -0.039953216910362244 -0.045123759657144547 0.004193268716335297
0.0010082360822707415 -0.019216852262616158 -0.07615037262439728 -0.020830700173974037 -0.009617261588573456 -0.004463267978280783 -0.010078058578073978 -0.04136023297905922
-0.08301601558923721 0.029618941247463226 -0.03289896249771118 -0.022154105827212334 -0.033769454807043076 0.0062498534098267555 -0.05876651778817177 0.0
0.008063442073762417 0.0 -0.05450395494699478 -0.03612534701824188 -0.03301859647035599 -0.019466251134872437 0.020618274807929993 -0.02509111538529396
-0.01389920711517334 -0.03559594228863716 -0.047948937863111496 -0.012612600810825825 -0.03029453568160534 -0.016303449869155884 0.0 -0.0006999205215834081
-0.006302693858742714 -0.06949298828840256 -0.011799274943768978 -0.011103838682174683 -0.0406050905585289 -0.0475730337202549 0.037104249000549316 -0.010450445115566254
0.00021704070968553424 -0.025952694937586784 -0.056771714240312576 0.0 -0.03477351740002632 0.001148940296843648 0.0 -0.02442818507552147
-0.029700826853513718 -0.054024823009967804 -0.029277639463543892 -0.015239197760820389 -0.005018237046897411 -0.011474386788904667 0.006429913453757763 -0.025148719549179077
0.017872879281640053 -0.05221095681190491 -0.016922365874052048 0.0 0.0 0.00829524826258421 -0.026490861549973488 -0.020336393266916275
-0.025586258620023727 0.032536957412958145 -0.0418802909553051 -0.016921548172831535 0.0 -0.02987995557487011 -0.04326169565320015 0.0
-0.03369002789258957 0.019331520423293114 0.0027094008401036263 -0.0570601150393486 -0.004992407746613026 -0.05876505374908447 -0.020802274346351624 0.0
-0.020569568499922752 -0.004984086379408836 -0.020375970751047134 0.0 -0.05488165095448494 -0.00971495732665062 0.006909543182700872 0.0
0.009216704405844212 -0.004153627436608076 -0.03832390531897545 -0.0325872004032135 0.0 0.017819209024310112 0.021807944402098656 0.006120550911873579
0.0 -0.011941087432205677 0.0 -0.05213629826903343 -0.005601640325039625 0.04890903830528259 0.00037002982571721077 -0.023130835965275764
0.010682634077966213 0.010711823590099812 0.0 -0.037243857979774475 -0.021988334134221077 0.0 -0.02553413063287735 0.0
-0.04964905604720116 -0.048959847539663315 -0.003182109445333481 -0.022817058488726616 0.00029238403658382595 0.00905279628932476 -0.008489820174872875 0.004335266537964344
-0.00893065333366394 0.032836008816957474 -0.007787588518112898 0.016658689826726913 -0.007293477654457092 -0.01953311823308468 -0.019198957830667496 -0.029698345810174942
-0.014330193400382996 -0.028534945100545883 0.010789360851049423 -0.0155207309871912 -0.007524438202381134 -0.015638498589396477 -0.07084650546312332 -0.021283216774463654
-0.008197939023375511 -0.009564748965203762 0.02801482193171978 -0.06633710116147995 0.03770064935088158 -0.021173857152462006 0.03503035753965378 0.0
-0.020064594224095345 -0.004318063147366047 0.0 0.0 -0.020810328423976898 -0.002904435619711876 -0.031844232231378555 0.01320297084748745
00000000: 0000 00a0 bc6d 9b3f 0000 0020 35ee 74bf
00000010: 0000 0000 0000 0000 0000 00a0 e5e2 acbf
00000020: 0000 0060 b543 aebf 0000 00c0 f33c 79bf
00000030: 0000 0000 0000 0000 0000 0080 6d25 82bf
00000040: 0000 0020 7eaf aebf 0000 0000 6c85 93bf
00000050: 0000 00a0 5637 803f 0000 00e0 f348 acbf
00000060: 0000 0040 d829 89bf 0000 0000 7c85 a1bf
00000070: 0000 00a0 a113 7dbf 0000 0040 950d 7fbf
00000080: 0000 00e0 6881 973f 0000 0040 cb38 9abf
00000090: 0000 0000 b453 713f 0000 00a0 e08e 9fbf
000000a0: 0000 00c0 89b5 8bbf 0000 0000 4cd0 9fbf
000000b0: 0000 0000 0000 0000 0000 0000 0000 0000
000000c0: 0000 0020 88f2 a1bf 0000 00c0 093b 8abf
000000d0: 0000 0020 3508 963f 0000 0000 0000 0000
000000e0: 0000 0020 37c8 89bf 0000 0040 1c5e 82bf
000000f0: 0000 0000 0000 0000 0000 0040 5f32 aebf
00000100: 0000 00a0 2108 66bf 0000 00c0 e3fa 9abf
00000110: 0000 0040 72f3 7abf 0000 0000 af52 8ebf
00000120: 0000 0000 557a 88bf 0000 0000 0000 0000
00000130: 0000 00a0 5a98 a2bf 0000 0060 87a6 85bf
00000140: 0000 0060 d1c2 a23f 0000 00e0 8e2c 87bf
00000150: 0000 00e0 dd4a b1bf 0000 0020 07a5 a33f
00000160: 0000 0080 0f1f 823f 0000 0000 0000 0000
00000170: 0000 0080 9d55 753f 0000 0060 7543 a0bf
00000180: 0000 0000 0000 0000 0000 0060 6161 9a3f
00000190: 0000 0000 0000 0000 0000 00a0 ca51 a0bf
000001a0: 0000 0040 97d1 9b3f 0000 00c0 c6ff 6bbf
000001b0: 0000 0020 db84 7dbf 0000 0000 21ed 713f
000001c0: 0000 0000 0000 0000 0000 00e0 4775 93bf
000001d0: 0000 0040 82c0 853f 0000 00e0 289b b5bf
000001e0: 0000 0060 633d a9bf 0000 0080 d23e 843f
000001f0: 0000 0080 7678 8c3f 0000 0000 55e7 983f
00000200: 0000 0000 bdc2 9fbf 0000 0080 d8c5 9bbf
00000210: 0000 0060 0b08 a33f 0000 0040 a555 a7bf
00000220: 0000 00e0 b1bf 77bf 0000 00c0 5c11 abbf
00000230: 0000 00c0 1281 9ebf 0000 00a0 7288 a6bf
00000240: 0000 0000 0000 0000 0000 0040 48fc 733f
00000250: 0000 00a0 d5df 83bf 0000 00a0 b12c 723f
00000260: 0000 0020 a2fb a5bf 0000 0000 7aba 703f
00000270: 0000 00e0 37de 8c3f 0000 0060 12b4 9cbf
00000280: 0000 0040 0b26 4cbf 0000 0080 07b1 75bf
00000290: 0000 0000 0000 0000 0000 0080 f2d7 95bf
000002a0: 0000 0000 0000 0000 0000 0040 c0f3 a9bf
000002b0: 0000 0040 7d06 b1bf 0000 00c0 43cf a13f
000002c0: 0000 0020 0664 92bf 0000 0000 180b 883f
000002d0: 0000 00c0 51a9 a2bf 0000 0000 5451 83bf
000002e0: 0000 0060 0949 91bf 0000 0000 89cb 9a3f
000002f0: 0000 00c0 83d6 933f 0000 0080 f3d3 a0bf
00000300: 0000 0000 0000 0000 0000 00c0 5b71 b2bf
00000310: 0000 00a0 1455 403f 0000 0020 838b a3bf
00000320: 0000 0000 0000 0000 0000 0080 bf74 a4bf
00000330: 0000 0020 761a a7bf 0000 0000 f62c 713f
00000340: 0000 0040 d984 503f 0000 0020 95ad 93bf
00000350: 0000 0040 977e b3bf 0000 00a0 a454 95bf
00000360: 0000 0000 37b2 83bf 0000 0060 1348 72bf
00000370: 0000 0020 cea3 84bf 0000 0020 2b2d a5bf
00000380: 0000 00a0 8940 b5bf 0000 0080 6d54 9e3f
00000390: 0000 0000 22d8 a0bf 0000 00e0 90af 96bf
000003a0: 0000 00e0 3a4a a1bf 0000 0040 7299 793f
000003b0: 0000 0020 a516 aebf 0000 0000 0000 0000
000003c0: 0000 00e0 9083 803f 0000 0000 0000 0000
000003d0: 0000 0040 f1e7 abbf 0000 0080 057f a2bf
000003e0: 0000 0040 d0e7 a0bf 0000 0000 f6ee 93bf
000003f0: 0000 0000 f51c 953f 0000 0040 7cb1 99bf
00000400: 0000 0000 3077 8cbf 0000 00a0 a139 a2bf
00000410: 0000 0060 c38c a8bf 0000 00a0 a2d4 89bf
00000420: 0000 00e0 8705 9fbf 0000 0000 dab1 90bf
00000430: 0000 0000 0000 0000 0000 00e0 5bef 46bf
00000440: 0000 0080 dad0 79bf 0000 00e0 4aca b1bf
00000450: 0000 00e0 372a 88bf 0000 0000 9cbd 86bf
00000460: 0000 00c0 30ca a4bf 0000 0020 7e5b a8bf
00000470: 0000 0000 54ff a23f 0000 0000 0b67 85bf
00000480: 0000 0080 ad72 2c3f 0000 00e0 5793 9abf
00000490: 0000 00a0 2e11 adbf 0000 0000 0000 0000
000004a0: 0000 00a0 d5cd a1bf 0000 0040 01d3 523f
000004b0: 0000 0000 0000 0000 0000 00c0 b303 99bf
000004c0: 0000 00c0 e469 9ebf 0000 0040 24a9 abbf
000004d0: 0000 0020 f5fa 9dbf 0000 0080 ba35 8fbf
000004e0: 0000 00c0 008e 74bf 0000 0020 e27f 87bf
000004f0: 0000 00c0 4056 7a3f 0000 0000 96c0 99bf
00000500: 0000 00a0 444d 923f 0000 0000 65bb aabf
00000510: 0000 00c0 1854 91bf 0000 0000 0000 0000
00000520: 0000 0000 0000 0000 0000 0060 19fd 803f
00000530: 0000 00a0 6b20 9bbf 0000 0040 10d3 94bf
00000540: 0000 00c0 4833 9abf 0000 0020 afa8 a03f
00000550: 0000 0060 5571 a5bf 0000 00e0 e153 91bf
00000560: 0000 0000 0000 0000 0000 00e0 d998 9ebf
00000570: 0000 00a0 6526 a6bf 0000 0000 0000 0000
00000580: 0000 00c0 d13f a1bf 0000 0060 a4cb 933f
00000590: 0000 0080 0632 663f 0000 00c0 fb36 adbf
000005a0: 0000 0040 eb72 74bf 0000 0000 7416 aebf
000005b0: 0000 0000 314d 95bf 0000 0000 0000 0000
000005c0: 0000 0060 3010 95bf 0000 0080 316a 74bf
000005d0: 0000 0040 70dd 94bf 0000 0000 0000 0000
000005e0: 0000 00a0 7219 acbf 0000 0080 6fe5 83bf
000005f0: 0000 0060 2e4d 7c3f 0000 0000 0000 0000
00000600: 0000 0020 35e0 823f 0000 00e0 6403 71bf
00000610: 0000 00e0 309f a3bf 0000 0000 45af a0bf
00000620: 0000 0000 0000 0000 0000 00e0 323f 923f
00000630: 0000 0060 d254 963f 0000 00e0 dc11 793f
00000640: 0000 0000 0000 0000 0000 00a0 9174 88bf
00000650: 0000 0000 0000 0000 0000 00e0 9bb1 aabf
00000660: 0000 00e0 bef1 76bf 0000 0000 9b0a a93f
00000670: 0000 0000 1240 383f 0000 0020 9caf 97bf
00000680: 0000 00e0 c6e0 853f 0000 00a0 14f0 853f
00000690: 0000 0000 0000 0000 0000 0080 a011 a3bf
000006a0: 0000 0020 1c84 96bf 0000 0000 0000 0000
000006b0: 0000 0080 9e25 9abf 0000 0000 0000 0000
000006c0: 0000 00e0 996b a9bf 0000 00e0 4311 a9bf
000006d0: 0000 0000 5e11 6abf 0000 00e0 5a5d 97bf
000006e0: 0000 00e0 6329 333f 0000 00c0 458a 823f
000006f0: 0000 0060 1c63 81bf 0000 0040 dbc1 713f
00000700: 0000 0000 3c4a 82bf 0000 00a0 e1cf a03f
00000710: 0000 00e0 e0e5 7fbf 0000 00c0 f90e 913f
00000720: 0000 0000 c4df 7dbf 0000 0060 7d00 94bf
00000730: 0000 0040 e4a8 93bf 0000 0040 3e69 9ebf
00000740: 0000 0000 2659 8dbf 0000 00c0 4338 9dbf
00000750: 0000 0080 bb18 863f 0000 0040 55c9 8fbf
00000760: 0000 0000 f2d1 7ebf 0000 00e0 8903 90bf
00000770: 0000 0020 ff22 b2bf 0000 0080 44cb 95bf
00000780: 0000 00c0 14ca 80bf 0000 00e0 ae96 83bf
00000790: 0000 00e0 eaaf 9c3f 0000 00e0 77fb b0bf
000007a0: 0000 00e0 7f4d a33f 0000 0080 99ae 95bf
000007b0: 0000 00c0 7fef a13f 0000 0000 0000 0000
000007c0: 0000 0020 d08b 94bf 0000 0040 d1af 71bf
000007d0: 0000 0000 0000 0000 0000 0000 0000 0000
000007e0: 0000 0080 4d4f 95bf 0000 0000 0bcb 67bf
000007f0: 0000 0020 e34d a0bf 0000 00c0 280a 8b3f

hidden2.weight f8 [256, 256]
-0.030139675363898277 -0.046895869076251984 -0.0419008806347847 0.0036352837923914194 -0.05912868306040764 -0.05612204596400261 -0.09612166881561279 -0.09545890241861343
-0.017957041040062904 -0.02960110828280449 -0.05385076254606247 0.06409129500389099 0.002917742822319269 -0.03509511798620224 0.10069504380226135 0.06216457858681679
-0.10080428421497345 0.052027396857738495 0.04345061630010605 -0.07610644400119781 0.06922128051519394 0.045439377427101135 0.01289745420217514 -0.05343112349510193
0.05568203330039978 0.0056382748298347 0.001519348006695509 -0.03212173283100128 0.036550816148519516 -0.08966687321662903 0.061225734651088715 0.06528013944625854
0.01396923791617155 -0.04397599771618843 -0.06801097095012665 -0.016174795106053352 0.10178139805793762 -0.05113763362169266 -0.007189675699919462 -0.11363254487514496
0.04778241738677025 -0.0382579080760479 -0.021919546648859978 0.11071960628032684 0.005321113392710686 0.012831330299377441 0.01950589194893837 0.06820955872535706
-0.014719739556312561 -0.005207539070397615 -0.08555329591035843 -0.05953983962535858 0.018554018810391426 -0.0875200554728508 -0.0075713214464485645 0.006233979947865009
0.04149370640516281 0.05945070460438728 -0.017464542761445045 -0.00941881537437439 0.051841266453266144 -0.043727319687604904 -0.032520782202482224 -0.12471918016672134
0.08597668260335922 0.14583063125610352 0.060056980699300766 -0.11526274681091309 -0.003909525461494923 -0.0025846308562904596 0.012361227534711361 0.11515233665704727
-0.03129059076309204 0.045995939522981644 0.10362734645605087 0.005595847964286804 -0.08108673989772797 -0.024334346875548363 0.0003309839521534741 -0.14999175071716309
0.004440793767571449 0.03464353829622269 -0.060879092663526535 -0.018684623762965202 -0.04535861313343048 -0.13086262345314026 0.09533677250146866 0.11868482083082199
-0.013388535007834435 0.0048828586004674435 -0.06072208657860756 0.02990070730447769 0.0888998731970787 -0.1379263699054718 0.008644485846161842 0.08741159737110138
-0.06583698093891144 0.05147642642259598 0.07051481306552887 0.0570748895406723 0.09680122882127762 -0.09580618888139725 -0.060038477182388306 -0.046327173709869385
0.06533163040876389 0.03753495216369629 0.003106693970039487 0.03786921501159668 0.09381461143493652 0.05414948984980583 -0.15237417817115784 0.000423907971708104
-0.01241648755967617 0.12796372175216675 0.024175867438316345 0.07555608451366425 0.05411936715245247 0.009191937744617462 0.08518511801958084 0.021670646965503693
-0.028738604858517647 -0.002884969115257263 0.05399991571903229 -0.0018807845190167427 -0.03258231282234192 -0.042609941214323044 -0.047768816351890564 -0.0476837158203125
0.1274627298116684 0.021813489496707916 -0.00019514118321239948 -0.0022435432765632868 0.0635484904050827 -0.11037731915712357 -0.006317637860774994 -0.07974351942539215
0.005865135230123997 0.013718202710151672 0.046960655599832535 -0.13578128814697266 -0.0680386871099472 0.05727268010377884 -0.06914681941270828 0.0006941482424736023
-0.10721167922019958 -0.09768937528133392 -0.08293326944112778 0.005067735910415649 -0.0026263680774718523 0.03746636211872101 0.09482995420694351 -0.08560526371002197
0.05371199548244476 0.00842184480279684 0.0360180139541626 -0.09011135250329971 0.01004814449697733 -0.11293662339448929 -0.039565615355968475 -0.07593507319688797
-0.06782553344964981 -0.06477048993110657 -0.09544291347265244 -0.029293164610862732 -0.08666687458753586 -0.0897369459271431 -0.027083907276391983 -0.01337065827101469
-0.022024279460310936 -0.01270953007042408 0.08320176601409912 0.007665709126740694 0.02413976937532425 0.06266136467456818 0.0783480554819107 0.07200136035680771
-0.0023183515295386314 -0.05183866620063782 -0.07805126905441284 -0.030762653797864914 0.07640320807695389 -0.025243550539016724 -0.007460140623152256 -0.009790316224098206
-0.009204581379890442 -0.0072803921066224575 0.055048298090696335 -0.07876979559659958 0.030035944655537605 0.04691160470247269 0.03559136390686035 0.01460336148738861
0.0059645031578838825 -0.030031895264983177 -0.03255238011479378 0.0035824759397655725 0.05577414482831955 0.00691652437672019 -0.16909615695476532 -0.06126369163393974
-0.013425953686237335 -0.13082587718963623 0.07116461545228958 0.08886612951755524 -0.01164978463202715 0.07713660597801208 0.005441553425043821 -0.0674731656908989
-0.014681012369692326 0.10139453411102295 -0.05425868183374405 0.06811647117137909 -0.037616025656461716 -0.10823041200637817 0.06948264688253403 0.09388924390077591
-0.011143827810883522 -0.02086828649044037 -0.07464049756526947 0.04342678561806679 0.013357744552195072 0.06462271511554718 0.04777931049466133 -0.06452123075723648
0.06679114699363708 -0.02747233957052231 0.049726031720638275 -0.053795136511325836 0.04372725635766983 0.04100112244486809 -0.002045739209279418 -0.011733511462807655
0.027614252641797066 -0.0369064025580883 0.05287695676088333 -0.06787844747304916 -0.02975614368915558 -0.16450892388820648 0.0972355529665947 -0.02046605944633484
-0.11041005700826645 -0.1064271479845047 -0.07611440122127533 -0.06798487156629562 0.06610138714313507 0.15733212232589722 0.05501236766576767 0.04334644228219986
0.04811827465891838 -0.06453603506088257 -0.058466311544179916 0.025571860373020172 -0.01544321421533823 0.022804750129580498 0.018524762243032455 -0.13596829771995544
00000000: 0000 0060 efdc 9ebf 0000 0040 bc02 a8bf
00000010: 0000 0040 0874 a5bf 0000 0020 bec7 6d3f
00000020: 0000 0060 1d46 aebf 0000 0060 07bc acbf
00000030: 0000 0000 6e9b b8bf 0000 00a0 fe6f b8bf
00000040: 0000 00a0 5463 92bf 0000 00c0 c04f 9ebf
00000050: 0000 00c0 5392 abbf 0000 0080 4968 b03f
00000060: 0000 0040 f3e6 673f 0000 00c0 fcf7 a1bf
00000070: 0000 0080 26c7 b93f 0000 0020 09d4 af3f
00000080: 0000 0040 4fce b9bf 0000 00c0 55a3 aa3f
00000090: 0000 00c0 283f a63f 0000 0040 b67b b3bf
000000a0: 0000 0060 7cb8 b13f 0000 0080 d443 a73f
000000b0: 0000 0000 fb69 8a3f 0000 0000 535b abbf
000000c0: 0000 0000 5b82 ac3f 0000 00e0 2818 773f
000000d0: 0000 0080 9be4 583f 0000 0080 4272 a0bf
000000e0: 0000 00e0 c9b6 a23f 0000 0080 68f4 b6bf
000000f0: 0000 00c0 fa58 af3f 0000 0000 33b6 b03f
00000100: 0000 0060 e79b 8c3f 0000 00a0 0584 a6bf
00000110: 0000 00c0 2a69 b1bf 0000 0020 2090 90bf
00000120: 0000 0080 580e ba3f 0000 0040 b62e aabf
00000130: 0000 00e0 eb72 7dbf 0000 00c0 0517 bdbf
00000140: 0000 00e0 ef76 a83f 0000 0060 8a96 a3bf
00000150: 0000 00e0 1372 96bf 0000 00c0 1e58 bc3f
00000160: 0000 0080 97cb 753f 0000 0000 5047 8a3f
00000170: 0000 0040 5af9 933f 0000 0080 2e76 b13f
00000180: 0000 0000 6225 8ebf 0000 0020 8054 75bf
00000190: 0000 0020 d2e6 b5bf 0000 0080 017c aebf
000001a0: 0000 0020 d3ff 923f 0000 00e0 b667 b6bf
000001b0: 0000 0020 1b03 7fbf 0000 0040 cd88 793f
000001c0: 0000 00c0 a93e a53f 0000 00a0 5270 ae3f
000001d0: 0000 00a0 39e2 91bf 0000 0000 2c4a 83bf
000001e0: 0000 0040 f08a aa3f 0000 0060 6d63 a6bf
000001f0: 0000 0060 90a6 a0bf 0000 00a0 98ed bfbf
00000200: 0000 0060 9102 b63f 0000 0000 94aa c23f
00000210: 0000 00e0 c9bf ae3f 0000 0000 dc81 bdbf
00000220: 0000 0040 6f03 70bf 0000 0020 5d2c 65bf
00000230: 0000 00e0 d750 893f 0000 00a0 9f7a bd3f
00000240: 0000 0000 5205 a0bf 0000 00a0 c78c a73f
00000250: 0000 0060 5287 ba3f 0000 0000 aceb 763f
00000260: 0000 00c0 19c2 b4bf 0000 0060 1aeb 98bf
00000270: 0000 0040 fdb0 353f 0000 0000 ee32 c3bf
00000280: 0000 0080 8230 723f 0000 0040 ccbc a13f
00000290: 0000 0060 8b2b afbf 0000 00e0 0f22 93bf
000002a0: 0000 0080 3e39 a7bf 0000 0040 1bc0 c0bf
000002b0: 0000 00a0 fd67 b83f 0000 00e0 2062 be3f
000002c0: 0000 00c0 726b 8bbf 0000 0060 0c00 743f
000002d0: 0000 0020 f716 afbf 0000 0080 4a9e 9e3f
000002e0: 0000 0060 24c2 b63f 0000 0040 92a7 c1bf
000002f0: 0000 0040 33b4 813f 0000 0040 9b60 b63f
00000300: 0000 0040 b1da b0bf 0000 0040 1e5b aa3f
00000310: 0000 0040 420d b23f 0000 0080 eb38 ad3f
00000320: 0000 0020 f7c7 b83f 0000 0020 c186 b8bf
00000330: 0000 0000 5dbd aebf 0000 0000 32b8 a7bf
00000340: 0000 00e0 92b9 b03f 0000 0000 c837 a33f
00000350: 0000 00a0 3573 693f 0000 0000 9863 a33f
00000360: 0000 0000 3c04 b83f 0000 0060 7bb9 ab3f
00000370: 0000 0040 ff80 c3bf 0000 00e0 fec7 3b3f
00000380: 0000 00c0 d06d 89bf 0000 0080 1d61 c03f
00000390: 0000 0000 8fc1 983f 0000 00c0 a457 b33f
000003a0: 0000 00a0 88b5 ab3f 0000 0000 39d3 823f
000003b0: 0000 0020 b1ce b53f 0000 0080 d430 963f
000003c0: 0000 0020 a76d 9dbf 0000 0000 38a2 67bf
000003d0: 0000 0080 e0a5 ab3f 0000 0000 95d0 5ebf
000003e0: 0000 0000 a1ae a0bf 0000 0060 f8d0 a5bf
000003f0: 0000 0080 2775 a8bf 0000 0000 006a a8bf
00000400: 0000 00e0 b250 c03f 0000 0080 4656 963f
00000410: 0000 0000 da93 29bf 0000 0020 0d61 62bf
00000420: 0000 00c0 b644 b03f 0000 0020 b041 bcbf
00000430: 0000 0000 86e0 79bf 0000 0040 126a b4bf
00000440: 0000 0040 0a06 783f 0000 0000 4a18 8c3f
00000450: 0000 0020 3a0b a83f 0000 0000 4861 c1bf
00000460: 0000 00c0 fb6a b1bf 0000 0040 d852 ad3f
00000470: 0000 0020 9bb3 b1bf 0000 0000 f0be 463f
00000480: 0000 0080 3972 bbbf 0000 00c0 2b02 b9bf
00000490: 0000 0060 1d3b b5bf 0000 0000 e8c1 743f
000004a0: 0000 00a0 e483 65bf 0000 0080 ca2e a33f
000004b0: 0000 00a0 c646 b83f 0000 0000 3aea b5bf
000004c0: 0000 0080 2380 ab3f 0000 00e0 783f 813f
000004d0: 0000 0000 f470 a23f 0000 00a0 8911 b7bf
000004e0: 0000 0020 1f94 843f 0000 0020 6ae9 bcbf
000004f0: 0000 00c0 f141 a4bf 0000 0020 7b70 b3bf
00000500: 0000 00a0 035d b1bf 0000 0080 cc94 b0bf
00000510: 0000 0060 f26e b8bf 0000 0000 07ff 9dbf
00000520: 0000 00e0 cc2f b6bf 0000 0020 00f9 b6bf
00000530: 0000 0040 e2bb 9bbf 0000 0060 1362 8bbf
00000540: 0000 0060 888d 96bf 0000 0040 7407 8abf
00000550: 0000 0000 b64c b53f 0000 0020 1466 7f3f
00000560: 0000 0080 18b8 983f 0000 0040 930a b03f
00000570: 0000 0040 9e0e b43f 0000 0060 ae6e b23f
00000580: 0000 0080 effd 62bf 0000 0000 998a aabf
00000590: 0000 0000 2bfb b3bf 0000 00c0 3e80 9fbf
000005a0: 0000 0020 298f b33f 0000 0000 72d9 99bf
000005b0: 0000 0040 868e 7ebf 0000 0000 f20c 84bf
000005c0: 0000 0000 dad9 82bf 0000 0060 0bd2 7dbf
000005d0: 0000 0060 4a2f ac3f 0000 00e0 412a b4bf
000005e0: 0000 0020 bec1 9e3f 0000 0040 cc04 a83f
000005f0: 0000 0000 0839 a23f 0000 0000 5ee8 8d3f
00000600: 0000 0020 3c6e 783f 0000 0060 aec0 9ebf
00000610: 0000 00a0 b4aa a0bf 0000 0020 ff58 6d3f
00000620: 0000 00c0 6d8e ac3f 0000 0060 8054 7c3f
00000630: 0000 0060 f1a4 c5bf 0000 0060 f45d afbf
00000640: 0000 0000 117f 8bbf 0000 0000 e7be c0bf
00000650: 0000 0020 d837 b23f 0000 0040 eebf b63f
00000660: 0000 00a0 d7db 87bf 0000 0080 39bf b33f
00000670: 0000 00e0 e149 763f 0000 00e0 eb45 b1bf
00000680: 0000 0020 1411 8ebf 0000 0000 fef4 b93f
00000690: 0000 0040 cbc7 abbf 0000 00c0 1470 b13f
000006a0: 0000 0060 6842 a3bf 0000 0000 fdb4 bbbf
000006b0: 0000 0060 9dc9 b13f 0000 0020 2009 b83f
000006c0: 0000 0040 93d2 86bf 0000 0000 7f5e 95bf
000006d0: 0000 00c0 a31b b3bf 0000 0020 093c a63f
000006e0: 0000 0020 4e5b 8b3f 0000 0040 1d8b b03f
000006f0: 0000 00a0 8776 a83f 0000 00a0 7684 b0bf
00000700: 0000 0080 3919 b13f 0000 0080 b521 9cbf
00000710: 0000 00c0 b075 a93f 0000 0040 098b abbf
00000720: 0000 0040 6b63 a63f 0000 0060 19fe a43f
00000730: 0000 00e0 39c2 60bf 0000 0040 bd07 88bf
00000740: 0000 0020 e946 9c3f 0000 0060 65e5 a2bf
00000750: 0000 0040 b012 ab3f 0000 0060 7b60 b1bf
00000760: 0000 0000 6578 9ebf 0000 00e0 a00e c5bf
00000770: 0000 00e0 6de4 b83f 0000 0000 0ef5 94bf
00000780: 0000 0060 d543 bcbf 0000 0040 cf3e bbbf
00000790: 0000 00c0 3b7c b3bf 0000 00e0 7467 b1bf
000007a0: 0000 0040 05ec b03f 0000 0080 7523 c43f
000007b0: 0000 00c0 942a ac3f 0000 0040 8131 a63f
000007c0: 0000 0060 f5a2 a83f 0000 0000 6f85 b0bf
000007d0: 0000 00e0 4bef adbf 0000 0080 822f 9a3f
000007e0: 0000 0020 b1a0 8fbf 0000 00e0 205a 973f
000007f0: 0000 00c0 27f8 923f 0000 00c0 6867 c1bf

hidden2.bias f8 [256]
-0.03233373910188675 -0.03540287911891937 -0.059841930866241455 -0.02808094024658203 -0.008369113318622112 -0.012141391634941101 0.0677039697766304 -0.05978609248995781
0.03033551201224327 0.027098091319203377 0.01954415626823902 -0.0026859084609895945 0.046225547790527344 0.03862283006310463 -0.021630363538861275 -0.028307804837822914
-0.030889000743627548 -0.04955452308058739 -0.051653455942869186 -0.030919285491108894 -0.01086173765361309 -0.018715985119342804 -0.06932978332042694 -0.004221488256007433
-0.04433954879641533 -0.0211333017796278 -0.03142588585615158 -0.022823384031653404 -0.015450626611709595 -0.024708498269319534 -0.003274590475484729 0.06286825984716415
-0.004356639925390482 -0.0016005004290491343 -0.01223769411444664 -0.024816857650876045 -0.024704888463020325 -0.00984277669340372 -0.02279317006468773 -0.044405244290828705
-0.001319830771535635 -0.05100041627883911 -0.052672795951366425 -0.03243035450577736 -0.04498899355530739 -0.019249344244599342 -0.021495981141924858 -0.011695750057697296
-0.05449654906988144 -0.02742384932935238 -0.0745064914226532 0.04907017573714256 -0.04484926536679268 -0.012715419754385948 -0.02911710925400257 -0.03413863480091095
-0.02776295877993107 -0.06157483533024788 -0.028084009885787964 -0.027658328413963318 -0.04362652078270912 -0.05399445816874504 -0.06830031424760818 -0.029448043555021286
-0.00966304074972868 -0.06205754727125168 -0.052435386925935745 0.016091160476207733 -0.0032326176296919584 -0.03665149584412575 -0.0565512515604496 -0.0463794469833374
-0.02939770370721817 -0.07148943841457367 0.07252711802721024 -0.0032519286032766104 -0.03606099262833595 -0.03603915497660637 -0.036969639360904694 0.01216773223131895
-0.038319654762744904 -0.0696045532822609 0.020467694848775864 -0.027668673545122147 -0.03116617165505886 -0.031717777252197266 0.10973329842090607 0.02703605592250824
-0.02663116529583931 0.028064316138625145 -0.057783093303442 -0.031022094190120697 -0.04698716476559639 -0.038154903799295425 -0.053938716650009155 0.036388542503118515
-0.02137579396367073 -0.006206344347447157 0.0002447690349072218 -0.07497046887874603 -0.027739983052015305 -0.05073297768831253 0.0004385990905575454 -0.04616161808371544
-0.06069466471672058 0.032993465662002563 0.10279892385005951 0.045584116131067276 0.03809428587555885 -0.05040606111288071 -0.013415616005659103 -0.06839734315872192
0.022817514836788177 -0.005429531447589397 -0.008639413863420486 0.004009309224784374 -0.05604396015405655 -0.03600713983178139 0.00024401907285209745 -0.04981844872236252
-0.04770056530833244 -0.06139540672302246 -0.08879946917295456 0.016740791499614716 -0.012855070643126965 -0.042554572224617004 -0.04213349521160126 -0.050007302314043045
0.004529929254204035 0.021526813507080078 -0.019481908529996872 -0.04780218377709389 -0.027028657495975494 -0.0366302952170372 -0.039575349539518356 -0.029674896970391273
0.0074979825876653194 0.012126817367970943 -0.05586840957403183 0.026893313974142075 -0.026982177048921585 -0.026131080463528633 -0.013499051332473755 -0.013455238193273544
-0.02498696558177471 -0.04699011892080307 -0.038577813655138016 -0.057813871651887894 -0.08529981970787048 -0.007558675017207861 -0.07211987674236298 -0.007886137813329697
-0.029680652543902397 -0.02395607717335224 0.06361125409603119 0.02988879755139351 0.008568874560296535 -0.05470898374915123 -0.02340546064078808 -0.0029047876596450806
-0.00882952194660902 -0.06299356371164322 -0.022009024396538734 -0.02757548727095127 0.04468090832233429 -0.029832035303115845 -0.03087274543941021 0.0028546671383082867
-0.034583404660224915 0.025491168722510338 -0.0006943330517970026 -0.05941876024007797 -0.012248648330569267 -0.054832976311445236 -0.02151031233370304 0.03564896434545517
-0.08634336292743683 -0.014080491848289967 0.011506352573633194 -0.05835705250501633 0.00022455729776993394 -0.04173335060477257 0.08450020104646683 -0.07020121812820435
-0.05582880228757858 -0.03144074231386185 -0.04048885405063629 0.0785202756524086 0.05618873983621597 -0.060473792254924774 -0.08157693594694138 -0.029263507574796677
0.012510399334132671 -0.01710217073559761 0.006173384841531515 -0.05410081148147583 0.007107652723789215 -0.026194585487246513 -0.02214939147233963 0.012304799631237984
-0.02980227582156658 -0.0303229670971632 -0.021591197699308395 0.05266477167606354 -0.02227446250617504 0.006314592901617289 -0.07048353552818298 -0.05044550448656082
0.031078103929758072 -0.020867986604571342 -0.04089963808655739 -0.024335356429219246 -0.010739197954535484 -0.011616366915404797 -0.0026601296849548817 -0.03345394507050514
-0.04615892097353935 0.07863160222768784 -0.0726868137717247 0.00821180921047926 -0.05569319427013397 -0.0528624951839447 -0.012471195310354233 0.0219802837818861
-0.04969828575849533 0.046872518956661224 0.0011594360694289207 -0.04238446056842804 -0.06557883322238922 -0.002147817984223366 0.0012065626215189695 -0.08711633086204529
-0.0023028806317597628 0.0005265927175059915 0.05871332064270973 0.04080561548471451 -0.04727713018655777 -0.02657821588218212 -0.06753311306238174 -0.02719966322183609
0.03591509163379669 -0.034968115389347076 -0.05168544873595238 -0.047089435160160065 -0.009411224164068699 -0.006666069384664297 -0.04529953747987747 -0.013945700600743294
-0.047472190111875534 -0.031961601227521896 -0.01748320832848549 0.01194172166287899 -0.029823660850524902 0.024369001388549805 -0.03454578295350075 -0.02815175987780094
00000000: 0000 0040 0c8e a0bf 0000 0080 5320 a2bf
00000010: 0000 0000 9aa3 aebf 0000 0000 40c1 9cbf
00000020: 0000 0060 d323 81bf 0000 0000 96dd 88bf
00000030: 0000 0020 0c55 b13f 0000 0060 489c aebf
00000040: 0000 00c0 4510 9f3f 0000 0020 9abf 9b3f
00000050: 0000 0020 6203 943f 0000 0020 c200 66bf
00000060: 0000 0000 e0aa a73f 0000 0020 5fc6 a33f
00000070: 0000 0020 4526 96bf 0000 00a0 b8fc 9cbf
00000080: 0000 00c0 5da1 9fbf 0000 00e0 355f a9bf
00000090: 0000 0060 5272 aabf 0000 0020 4ea9 9fbf
000000a0: 0000 00c0 ad3e 86bf 0000 0080 482a 93bf
000000b0: 0000 00c0 98bf b1bf 0000 0020 8d4a 71bf
000000c0: 0000 0060 acb3 a6bf 0000 00e0 f7a3 95bf
000000d0: 0000 00c0 0d17 a0bf 0000 0060 035f 97bf
000000e0: 0000 0000 94a4 8fbf 0000 0040 2f4d 99bf
000000f0: 0000 0060 50d3 6abf 0000 0060 2218 b03f
00000100: 0000 00a0 44d8 71bf 0000 0040 fc38 5abf
00000110: 0000 0080 1310 89bf 0000 0020 9769 99bf
00000120: 0000 0000 3d4c 99bf 0000 0020 7328 84bf
00000130: 0000 00c0 1757 97bf 0000 00c0 48bc a6bf
00000140: 0000 0080 c59f 55bf 0000 0000 ba1c aabf
00000150: 0000 00c0 edf7 aabf 0000 0020 b69a a0bf
00000160: 0000 0020 cc08 a7bf 0000 00a0 19b6 93bf
00000170: 0000 00e0 0a03 96bf 0000 0000 f1f3 87bf
00000180: 0000 00c0 f8e6 abbf 0000 0060 ff14 9cbf
00000190: 0000 0080 db12 b3bf 0000 00e0 b91f a93f
000001a0: 0000 00a0 7bf6 a6bf 0000 00c0 8a0a 8abf
000001b0: 0000 0020 e0d0 9dbf 0000 0080 9e7a a1bf
000001c0: 0000 00a0 e46d 9cbf 0000 00a0 bc86 afbf
000001d0: 0000 0000 0ec2 9cbf 0000 0000 7752 9cbf
000001e0: 0000 0020 3756 a6bf 0000 0060 29a5 abbf
000001f0: 0000 0020 217c b1bf 0000 00c0 a027 9ebf
00000200: 0000 0060 37ca 83bf 0000 00c0 01c6 afbf
00000210: 0000 00a0 cfd8 aabf 0000 0080 337a 903f
00000220: 0000 0060 4a7b 6abf 0000 0020 fcc3 a2bf
00000230: 0000 0020 49f4 acbf 0000 0000 0cbf a7bf
00000240: 0000 0080 6e1a 9ebf 0000 00c0 214d b2bf
00000250: 0000 0020 2391 b23f 0000 00e0 c9a3 6abf
00000260: 0000 0020 9676 a2bf 0000 0060 b973 a2bf
00000270: 0000 0040 afed a2bf 0000 0060 65eb 883f
00000280: 0000 0040 a29e a3bf 0000 00a0 9ad1 b1bf
00000290: 0000 00c0 7bf5 943f 0000 0040 2d55 9cbf
000002a0: 0000 0060 06ea 9fbf 0000 0000 503d a0bf
000002b0: 0000 0040 7b17 bc3f 0000 0000 57af 9b3f
000002c0: 0000 0040 3345 9bbf 0000 0060 e4bc 9c3f
000002d0: 0000 00e0 be95 adbf 0000 0080 41c4 9fbf
000002e0: 0000 00a0 b30e a8bf 0000 0020 0a89 a3bf
000002f0: 0000 0000 db9d abbf 0000 00e0 84a1 a23f
00000300: 0000 0040 89e3 95bf 0000 00e0 d26b 79bf
00000310: 0000 0000 8b0a 303f 0000 00c0 4331 b3bf
00000320: 0000 00c0 de67 9cbf 0000 0040 acf9 a9bf
00000330: 0000 00c0 78be 3c3f 0000 00e0 7ea2 a7bf
00000340: 0000 0000 5f13 afbf 0000 0000 85e4 a03f
00000350: 0000 00c0 0751 ba3f 0000 0020 cd56 a73f
00000360: 0000 0020 1881 a33f 0000 00c0 d2ce a9bf
00000370: 0000 0080 a579 8bbf 0000 0000 7d82 b1bf
00000380: 0000 0080 795d 973f 0000 00c0 463d 76bf
00000390: 0000 0080 8ab1 81bf 0000 00c0 106c 703f
000003a0: 0000 0040 cbb1 acbf 0000 0020 876f a2bf
000003b0: 0000 00e0 ebfb 2f3f 0000 00c0 cd81 a9bf
000003c0: 0000 0060 356c a8bf 0000 0000 386f afbf
000003d0: 0000 00e0 8fbb b6bf 0000 0080 7f24 913f
000003e0: 0000 0060 c253 8abf 0000 0080 b6c9 a5bf
000003f0: 0000 0080 8592 a5bf 0000 00a0 8e9a a9bf
00000400: 0000 00a0 f98d 723f 0000 0000 200b 963f
00000410: 0000 00c0 10f3 93bf 0000 0020 8779 a8bf
00000420: 0000 0080 66ad 9bbf 0000 00c0 34c1 a2bf
00000430: 0000 0060 3843 a4bf 0000 00a0 1863 9ebf
00000440: 0000 0060 34b6 7e3f 0000 00e0 f1d5 883f
00000450: 0000 00c0 c89a acbf 0000 00c0 eb89 9b3f
00000460: 0000 0040 37a1 9bbf 0000 0020 1bc2 9abf
00000470: 0000 0000 64a5 8bbf 0000 0080 6b8e 8bbf
00000480: 0000 00e0 2e96 99bf 0000 00c0 160f a8bf
00000490: 0000 00a0 78c0 a3bf 0000 00a0 c799 adbf
000004a0: 0000 0080 35d6 b5bf 0000 0060 d8f5 7ebf
000004b0: 0000 00c0 7276 b2bf 0000 0080 9b26 80bf
000004c0: 0000 00e0 9a64 9ebf 0000 0020 f187 98bf
000004d0: 0000 00c0 d348 b03f 0000 0040 2b9b 9e3f
000004e0: 0000 00e0 8e8c 813f 0000 00e0 d002 acbf
000004f0: 0000 00e0 99f7 97bf 0000 0000 c8cb 67bf
00000500: 0000 0060 3615 82bf 0000 00a0 5820 b0bf
00000510: 0000 00a0 8889 96bf 0000 00a0 bf3c 9cbf
00000520: 0000 0080 6ae0 a63f 0000 0000 4a8c 9ebf
00000530: 0000 00e0 1a9d 9fbf 0000 00c0 ab62 673f
00000540: 0000 0080 eab4 a1bf 0000 0060 5b1a 9a3f
00000550: 0000 00e0 7cc0 46bf 0000 00c0 226c aebf
00000560: 0000 00c0 d115 89bf 0000 0060 1113 acbf
00000570: 0000 00a0 cc06 96bf 0000 00c0 9440 a23f
00000580: 0000 0040 991a b6bf 0000 00a0 3bd6 8cbf
00000590: 0000 0080 a490 873f 0000 00c0 f9e0 adbf
000005a0: 0000 0080 e46e 2d3f 0000 00e0 125e a5bf
000005b0: 0000 0020 cea1 b53f 0000 0000 b5f8 b1bf
000005c0: 0000 00c0 9795 acbf 0000 0040 0019 a0bf
000005d0: 0000 0080 f4ba a4bf 0000 00a0 e719 b43f
000005e0: 0000 0040 c5c4 ac3f 0000 00c0 6bf6 aebf
000005f0: 0000 00e0 39e2 b4bf 0000 00c0 40f7 9dbf
00000600: 0000 0060 0d9f 893f 0000 0040 3b83 91bf
00000610: 0000 0060 4349 793f 0000 0000 1ab3 abbf
00000620: 0000 0000 ea1c 7d3f 0000 00e0 c0d2 9abf
00000630: 0000 0080 54ae 96bf 0000 0040 4233 893f
00000640: 0000 00e0 7c84 9ebf 0000 00e0 fb0c 9fbf
00000650: 0000 00c0 001c 96bf 0000 0080 e0f6 aa3f
00000660: 0000 00e0 1dcf 96bf 0000 00a0 54dd 793f
00000670: 0000 0080 350b b2bf 0000 0040 fed3 a9bf
00000680: 0000 0040 f0d2 9f3f 0000 00e0 6a5e 95bf
00000690: 0000 0020 ccf0 a4bf 0000 0020 5eeb 98bf
000006a0: 0000 00c0 6efe 85bf 0000 0060 52ca 87bf
000006b0: 0000 0040 b2ca 65bf 0000 0020 e020 a1bf
000006c0: 0000 0060 24a2 a7bf 0000 0060 3321 b43f
000006d0: 0000 0060 9a9b b2bf 0000 0060 5ad1 803f
000006e0: 0000 0080 d183 acbf 0000 0000 cb10 abbf
000006f0: 0000 0080 7f8a 89bf 0000 00e0 ff81 963f
00000700: 0000 00c0 0d72 a9bf 0000 00c0 acff a73f
00000710: 0000 0000 07ff 523f 0000 0080 6ab3 a5bf
00000720: 0000 0040 c6c9 b0bf 0000 0000 4d98 61bf
00000730: 0000 00c0 b0c4 533f 0000 0080 414d b6bf
00000740: 0000 00a0 7ddd 62bf 0000 0040 6141 413f
00000750: 0000 0020 ac0f ae3f 0000 0040 79e4 a43f
00000760: 0000 0040 b534 a8bf 0000 00e0 5137 9bbf
00000770: 0000 00a0 d949 b1bf 0000 0080 3ada 9bbf
00000780: 0000 0080 7663 a23f 0000 0040 57e7 a1bf
00000790: 0000 00e0 8376 aabf 0000 0040 1b1c a8bf
000007a0: 0000 0020 3146 83bf 0000 0060 e14d 7bbf
000007b0: 0000 0040 8031 a7bf 0000 0040 908f 8cbf
000007c0: 0000 0060 464e a8bf 0000 0060 455d a0bf
000007d0: 0000 0040 1ee7 91bf 0000 00c0 e674 883f
000007e0: 0000 0000 188a 9ebf 0000 0000 30f4 983f
000007f0: 0000 0020 fcaf a1bf 0000 00a0 d0d3 9cbf
