FPGA/quantized_statedict.pt (torch_old, 487726 bytes, 4 tensors)

input.weight f4 [256, 72]
0	0xbc5dc05c	-0.013534632
1	0x3c570122	0.013122829
2	0xbd555f6a	-0.052092947
3	0xbe23d62d	-0.1599967
4	0x3dcd1a97	0.10014837
5	0xbd94ad1c	-0.072595805
6	0xbd3f75dc	-0.04674326
7	0x3d8325c6	0.06403689
8	0xbe321b0b	-0.17393129
9	0xbbb10fd9	-0.0054035005
10	0x3d70cadb	0.058787208
11	0x3d77b3c6	0.06047418
12	0x3e476aa3	0.19474272
13	0xbe54fa8f	-0.20798706
14	0x3d282b06	0.041056655
15	0x3bc3907e	0.0059681525
16	0xbcd7636e	-0.026292529
17	0xbd7b5fbb	-0.061370593
18	0x3e02f6cb	0.12789457
19	0xbe49c2fe	-0.1970329
20	0xbd06167d	-0.03273629
21	0xbd8eebd9	-0.06978578
22	0x3cc5ed39	0.024160968
23	0xbe4a676d	-0.19766016
24	0xbd9f377a	-0.07774253
25	0x3d80b7c7	0.06285053
26	0x3d16dc4a	0.036831178
27	0x3da8e424	0.08246639
28	0x3cb9dfac	0.022689663
29	0x3b197bf8	0.0023419838
30	0xbce8b2cc	-0.02840557
31	0xbce1e203	-0.027573591
32	0xbe188c4d	-0.1489727
33	0xbcd01dcd	-0.025404835
34	0x3d02c88d	0.03192954
35	0xbdc4b082	-0.09603979
36	0xbd7addbb	-0.061246615
37	0x3df82798	0.12116927
38	0x3c6894a7	0.014195598
39	0xbd816916	-0.06318872
40	0x396c0f24	0.00022512354
41	0xbdbe95a1	-0.09305883
42	0x3d505070	0.05085796
43	0x3d9ffaee	0.07811533
44	0x3e0477e4	0.1293636
45	0xbe26c7ba	-0.16287127
46	0xbd0677ef	-0.03282922
47	0x3da4a838	0.08039898
48	0x3da97fc9	0.08276326
49	0x3d8be1f2	0.06830205
50	0xbb907191	-0.0044080694
51	0x3e971208	0.29505944
52	0x3e44a924	0.19205147
53	0xbe826948	-0.25470948
54	0xbd79ba0c	-0.060968444
55	0x3e48af24	0.19598061
56	0x3dd34583	0.10315993
57	0x3dc5d9b8	0.09660667
58	0x3b97c737	0.0046319026
59	0xbd456c2d	-0.048198868
60	0x3d7c328f	0.061571654
61	0x3d7ec7a4	0.06220211
62	0x3d80d22e	0.062900886
63	0x3d1a1f6a	0.037627615
64	0x3a222ba8	0.0006186315
65	0x3d925dee	0.07146822
66	0x3dc72e14	0.097255856
67	0xbc5c092a	-0.013429919
68	0xbdc05d17	-0.093927555
69	0x38f648ec	0.00011743777
70	0xbbca9c50	-0.0061831847
71	0xbdd0fbb4	-0.102042586
72	0xbd9a7350	-0.07541525
73	0x3d3529af	0.044229206
74	0xbd9df26d	-0.07712255
75	0x3dfa406f	0.12219321
76	0x3b906e9e	0.004407718
77	0x3d6bd1bd	0.05757307
78	0x3d3890ab	0.04505984
79	0xbdb8c99b	-0.09022828
80	0x3d9c407f	0.07629489
81	0xbd2edfe3	-0.042693984
82	0xbcf081dc	-0.029358797
83	0x3db46d2e	0.08809887
84	0x3da3eb7f	0.08003902
85	0x3e41defc	0.18932718
86	0xbd855ee4	-0.065122396
87	0x3d8fa5a1	0.07014013
88	0x3da101c0	0.07861662
89	0x3dcf394f	0.101183526
90	0x3df60ed9	0.12014551
91	0xbe4a7658	-0.19771707
92	0x3e5232a7	0.20527135
93	0x3cef8e85	0.029242763
94	0xbdd7ad76	-0.10531132
95	0xbe1c8fed	-0.15289278
96	0xbe19c8ad	-0.15017958
97	0x3dfb1643	0.122601055
98	0x3c4c2ba8	0.01246158
99	0x3dc4305f	0.095795386
100	0x3d201663	0.03908385
101	0x3e149440	0.14509678
102	0x3d4ab552	0.049489327
103	0x3d47d6b9	0.04878876
104	0xbd841cd6	-0.064508125
105	0x3d8761e9	0.06610472
106	0x3da15290	0.07877076
107	0x3c5828d5	0.013193329
108	0x3b8eb9a4	0.004355626
109	0x3c8a072b	0.016849121
110	0xbda8223b	-0.08209654
111	0xbda48ed1	-0.080350526
112	0x3dfd83eb	0.12378677
113	0xbdcd560d	-0.100261785
114	0x3c7b0152	0.015320139
115	0xbdf98193	-0.121829174
116	0x3db912e5	0.09036807
117	0xbe150878	-0.14554012
118	0x3d606425	0.054783005
119	0xbd3adaab	-0.045618694
120	0x3e1455e7	0.14485894
121	0x3da9ac93	0.08284869
122	0xbe199e47	-0.15001784
123	0x3c53218c	0.012886416
124	0x3e89b003	0.268921
125	0xbd66c82b	-0.05634324
126	0xbc8b1926	-0.016979765
127	0xbc1d32c1	-0.00959462
128	0xbdad7045	-0.08468679
129	0x3e293151	0.16522719
130	0x3d841aa1	0.064503916
131	0xbb752e16	-0.0037411503
132	0xbe1a5059	-0.15069713
133	0xbdc176f8	-0.094465196
134	0xbd2acd1d	-0.041699518
135	0x3d55d26b	0.052202623
136	0xbd9e6d49	-0.07735688
137	0xbd5fe02e	-0.054657154
138	0xb869e3d2	-5.5763703e-05
139	0xbd2c29c2	-0.04203201
140	0xbbddba2c	-0.006766578
141	0x3d2c9ba3	0.042140614
142	0x3dbd36e7	0.092389874
143	0xbdab14b5	-0.08353559
144	0x3dafc056	0.08581607
145	0xbd4e3da9	-0.050351772
146	0xbc45bdfe	-0.012069223
147	0xbe15471c	-0.14577907
148	0x3e0f1f6a	0.13976827
149	0x3e0e25dc	0.1388163
150	0x3d7462b1	0.059664432
151	0x3d945a37	0.072437696
152	0xbc721dac	-0.014777582
153	0xbe45fe0c	-0.19335192
154	0x3e2fcbd9	0.17167605
155	0xbca95166	-0.020668697
156	0x3d6fcf26	0.05854716
157	0xbe90df2c	-0.28295267
158	0xbd4c5b31	-0.049891654
159	0xbdd0776e	-0.101790294
160	0x3e202e7d	0.15642734
161	0xbddafe05	-0.10692982
162	0xbe29914d	-0.16559334
163	0xbe6bde92	-0.23034123
164	0xbd2e79dd	-0.042596687
165	0x3ea9c095	0.3315474
166	0x3e0128a4	0.1261316
167	0xbeb4c67c	-0.35307682
168	0xbcf98a13	-0.030461347
169	0x3db83250	0.08993971
170	0x3caa1034	0.02075968
171	0xbd17a5d6	-0.037023388
172	0x3d98dfa6	0.074645326
173	0xbdab3aa0	-0.08360791
174	0xbc5c6a93	-0.013453144
175	0xbd927838	-0.07151836
176	0xbd4fc7c8	-0.050727636
177	0x3dad3623	0.084575914
178	0xbcde8a54	-0.02716557
179	0x3c9328f2	0.01796386
180	0x3dff89a1	0.124774225
181	0xbc3126aa	-0.010812441
182	0xbdd3cf86	-0.10342316
183	0xbd824574	-0.063609034
184	0x3b8a111c	0.0042134654
185	0x3de79717	0.11308115
186	0xbc36c890	-0.011156216
187	0xbce60290	-0.028077394
188	0x3e6df075	0.23236258
189	0xbe106a36	-0.14103016
190	0xbc8e8683	-0.017398125
191	0x3a874fdb	0.0010323481
192	0x3d90ba64	0.07066801
193	0xbe0adbb8	-0.13560379
194	0xbda9c4d3	-0.08289494
195	0x3d41fbfa	0.047359444
196	0x3db6f8bc	0.08934161
197	0xbe81f27c	-0.25380313
198	0x3e29a8ea	0.16568342
199	0xbe0b2171	-0.13586976
200	0x3d6592f2	0.05604834
201	0x3d156208	0.036470443
202	0xbd41ea9b	-0.047342878
203	0xbb02fb89	-0.0019986352
204	0xbc325d27	-0.010886467
205	0x3d4f2f0b	0.050581973
206	0x3e1942b6	0.14966854
207	0xbdd2e278	-0.10297102
208	0x3dd9fdaa	0.10644086
209	0x3d24a09a	0.040192224
210	0x3e0bdc35	0.13658221
211	0x3db9dfc5	0.09075884
212	0xbe4aec15	-0.1981662
213	0xbd435f65	-0.047698397
214	0x3da28891	0.07936204
215	0x3d2d739d	0.042346586
216	0x3e4fe694	0.20302802
217	0xbd9c8345	-0.07642225
218	0x3d9d680c	0.07685861
219	0xbcc05c84	-0.023481615
220	0xbe222e5c	-0.15837997
221	0x3df68613	0.120372914
222	0x3cd729a7	0.026264979
223	0x3d901b7a	0.07036491
224	0x3e953d27	0.29148218
225	0xbdf3f835	-0.11912576
226	0xbcbbd371	-0.022927972
227	0x3cd00082	0.025390867
228	0x3e2ed527	0.17073499
229	0xbe8e6832	-0.2781387
230	0x3deb1e74	0.11480418
231	0x3e50fe6c	0.20409554
232	0x3d1733ac	0.036914513
233	0xbe19067c	-0.1494388
234	0xbe17dbbc	-0.14829916
235	0x3cfda02f	0.03096017
236	0x3dd9ad39	0.10628743
237	0x3ea9242a	0.33035403
238	0x3dbd7e7c	0.092526406
239	0xbeb1f0e0	-0.34754086
240	0xbe362101	-0.17786027
241	0x3c201bc7	0.009772248
242	0xbcf8602b	-0.030319294
243	0x3c43524a	0.011921475
244	0x3e32f547	0.17476378
245	0xbe28c6da	-0.16482106
246	0xbe96ec73	-0.2947727
247	0xbc4431be	-0.01197475
248	0xbd13da69	-0.036096964
249	0x3dc82fe8	0.097747624
250	0xbd5b5a43	-0.053552877
251	0xbc08ae62	-0.008342357
252	0x3de7c7ae	0.11317383
253	0xbd8e2442	-0.069405094
254	0xbdb79d6c	-0.08965573
255	0x3e0db35d	0.13837953

h1.weight f4 [256, 256]
0	0xbdfabfcd	-0.12243614
1	0xbd0131f0	-0.031541765
2	0x3d3d44ba	0.04620812
3	0xbc1fe86a	-0.009760002
4	0xbd698760	-0.05701387
5	0x3d342445	0.0439799
6	0xbcbb0554	-0.02282969
7	0x3cdf5c42	0.027265672
8	0x3d582394	0.052768305
9	0xbdf92532	-0.121652976
10	0xbdd3bc7a	-0.103386834
11	0xbd147969	-0.0362486
12	0xbd062632	-0.03275127
13	0xbd806955	-0.062700905
14	0xbc3ac4cb	-0.011399458
15	0x3b9a6854	0.004712144
16	0x3ccd15cc	0.025034808
17	0xbbba6372	-0.0056881243
18	0xbce9c09d	-0.028534228
19	0x3d202723	0.039099824
20	0xbc3fb8e0	-0.0117017925
21	0xbcebb9ec	-0.028775178
22	0xbdd3d78a	-0.10343845
23	0x3cbffd27	0.023436142
24	0xbc8e6fb3	-0.017387247
25	0x3cc9f73c	0.024654023
26	0x3d7c5f7f	0.06161451
27	0x3d16a10b	0.036774676
28	0x3bce9ed8	0.0063055567
29	0xbd67ca14	-0.0565892
30	0x3bc44a30	0.005990289
31	0xbd34fdd4	-0.044187382
32	0xbc3c6888	-0.011499532
33	0xbd9599aa	-0.073047
34	0xbd98fc7b	-0.07470032
35	0xbdf6de8b	-0.120541655
36	0xbd3406a9	-0.043951664
37	0xbbc93772	-0.006140643
38	0xbd21b150	-0.03947574
39	0xbc99871a	-0.01874118
40	0xbcb28924	-0.02179391
41	0xbcff2b36	-0.031148534
42	0x3d51f73b	0.051261168
43	0xbdb06c20	-0.08614373
44	0xbe013a31	-0.12619855
45	0x3d934cd2	0.07192387
46	0x3bac8a25	0.0052654915
47	0x3d3dee99	0.046370123
48	0xbd1cf1be	-0.03831648
49	0xbbfc5183	-0.0077001466
50	0x3d20e70a	0.039282836
51	0xbcecb79e	-0.02889615
52	0xbc95b686	-0.01827551
53	0xbd0dbba2	-0.03460277
54	0xbd19a860	-0.03751409
55	0xbd208dd9	-0.039197776
56	0x3cdc6a1b	0.026906064
57	0x3cf64c72	0.030065749
58	0xbdf29abe	-0.11845921
59	0xbc6e63bc	-0.014550146
60	0x3a1ac5fa	0.00059041346
61	0xbdf8a03b	-0.121399365
62	0x3cd1b040	0.025596738
63	0xbcc641c1	-0.024201276
64	0x3cc5db3c	0.02415239
65	0xba8caca2	-0.0010732601
66	0x3ce5fb15	0.028073827
67	0x3dddfa62	0.10838772
68	0xbda4ebe6	-0.080528066
69	0x3c85c314	0.016328372
70	0x3cbcbb74	0.023038603
71	0xbd21388f	-0.03936058
72	0xbd04bd88	-0.032407314
73	0xbc8cdfa3	-0.017196482
74	0xbd581ae2	-0.052760012
75	0x3ce14390	0.027498037
76	0x3c0df2fd	0.00866389
77	0x3d80f453	0.06296601
78	0xbd5bbd64	-0.053647414
79	0xbd85e936	-0.06538622
80	0x3c3763cb	0.011193226
81	0x3dab146f	0.08353507
82	0x3d759251	0.05995399
83	0xbd4b3af4	-0.04961677
84	0xbdb52b3c	-0.08846137
85	0xbdc74345	-0.097296275
86	0xbdaff268	-0.08591157
87	0xbcefcbe6	-0.029272031
88	0x3c415597	0.011800191
89	0x3d8ed2e8	0.06973821
90	0xbd1dc6c5	-0.03851964
91	0xbd333e86	-0.0437608
92	0xbdc934d2	-0.09824528
93	0x3c8970f9	0.016777502
94	0x3cde807f	0.027160881
95	0xbb9f9172	-0.0048696334
96	0x3d575965	0.052575488
97	0x3da48c52	0.080345765
98	0x3bd11e65	0.006381797
99	0xbe1405ef	-0.14455388
100	0xbd44543f	-0.047931906
101	0xbdbbb08a	-0.091645315
102	0x3da6655b	0.08124801
103	0xbdb689da	-0.08913012
104	0xbd4728c4	-0.04862286
105	0x3d5778b8	0.05260536
106	0x3d8332a0	0.0640614
107	0x3cc7f0c0	0.02440679
108	0xbd02bbb4	-0.03191729
109	0x3bbfe310	0.0058559254
110	0x3dd2de4c	0.10296306
111	0xbce102d4	-0.027467169
112	0x3d39c02b	0.04534928
113	0x3d1304cf	0.035893258
114	0xbdf99ac0	-0.12187719
115	0xbda6b63e	-0.08140229
116	0xbcb94d80	-0.022619963
117	0x39a1b004	0.00030839455
118	0x3dbd1aec	0.092336506
119	0x3c901599	0.017588424
120	0x39825e74	0.00024865905
121	0x3c9a9399	0.018869208
122	0x3ce89036	0.028389078
123	0x3c14b280	0.009075761
124	0x3da83bbf	0.08214521
125	0xbbe66c84	-0.007031979
126	0x3cffc8a0	0.031223595
127	0xbd34f8b6	-0.0441825
128	0x3d77a5da	0.060460903
129	0xbdd5c272	-0.10437478
130	0x3d920779	0.071303315
131	0x3cfd0465	0.030885885
132	0x3cb52b1a	0.022115279
133	0xbcfc4214	-0.030793227
134	0x3ca5a87e	0.020221945
135	0xbd4fe7e2	-0.05075825
136	0xbcbe1133	-0.02320156
137	0x3d034a26	0.032053135
138	0xbcbcbf59	-0.02304046
139	0x3c73ae03	0.014873031
140	0x3d1a9224	0.037737027
141	0x3d69a18a	0.05703882
142	0xbcd76113	-0.026291406
143	0xbc01f25c	-0.007931318
144	0x3d02a857	0.031898823
145	0xbcae70f1	-0.021294089
146	0xbd4d38d2	-0.050103016
147	0x3d00eb2d	0.03147428
148	0xbd95ca00	-0.07313919
149	0xbd7fde2a	-0.06246773
150	0x3d51549c	0.05110608
151	0xbcb2835f	-0.021791158
152	0xbd56fab6	-0.05248519
153	0xbdb9e20b	-0.090763174
154	0xbd548ad8	-0.051890224
155	0xbe01a29c	-0.12659687
156	0xbd104dda	-0.035230495
157	0x3d949448	0.07254845
158	0xbc6456b6	-0.013936689
159	0xbdbd9b54	-0.09258142
160	0x3d92d42a	0.07169373
161	0x3d090733	0.03345413
162	0xbd0571ae	-0.032579117
163	0xbd46331c	-0.048388585
164	0xbdc8abef	-0.09798419
165	0xbd16f4ea	-0.036854662
166	0x3ca73efd	0.020415777
167	0xbc8f01fb	-0.017456999
168	0xbd5e733f	-0.054309126
169	0xbd7902ed	-0.060793806
170	0x3d008a07	0.031381633
171	0xbe0d2e40	-0.13787174
172	0xbd1b5772	-0.03792519
173	0x3ca086ba	0.019595493
174	0x3dc30bdf	0.095237486
175	0x3d77a268	0.060457617
176	0x3d668b36	0.056285106
177	0xbd15729f	-0.036486264
178	0xbad64387	-0.0016347029
179	0x3d932cf2	0.07186307
180	0xbcb45780	-0.02201438
181	0xba015ad8	-0.0004934496
182	0xbe1955b3	-0.14974098
183	0xbd5c6d90	-0.053815424
184	0x3c4eb162	0.012615534
185	0x3d816c81	0.063195236
186	0xbcc548d4	-0.024082579
187	0x3d479205	0.04872324
188	0x3bcb2bcd	0.00620029
189	0x3cac3b7e	0.021024462
190	0xbd97b243	-0.074070476
191	0xbd12cdc2	-0.035840757
192	0xbd54af88	-0.051925212
193	0x3cb7722c	0.022393309
194	0x3cb6d860	0.022319973
195	0xbd640dbf	-0.05567717
196	0xba799080	-0.00095201284
197	0x3d340b07	0.04395583
198	0xbe850cf8	-0.25986457
199	0xbd782103	-0.060578357
200	0x3d2b1d00	0.041775703
201	0xbd660337	-0.05615541
202	0x3ccbbb54	0.024869598
203	0xbd5c25a4	-0.053746834
204	0xbde9e1e9	-0.11420042
205	0xbe0de205	-0.13855751
206	0xbc9230e8	-0.017845586
207	0x3d125c44	0.035732523
208	0x3df979ee	0.12181459
209	0x3d4be377	0.049777474
210	0xbd8ec213	-0.069706105
211	0x3d27ce28	0.04096809
212	0x3d08f3c5	0.0334356
213	0x3d2d3336	0.042285167
214	0xbc61f396	-0.013790986
215	0x3ba58eb0	0.00505241
216	0x3d0e8c68	0.03480187
217	0xbd8adaa0	-0.06779981
218	0xbd0b2db5	-0.033979136
219	0xbc0fe4f0	-0.00878261
220	0xbcefbfb1	-0.02926621
221	0xbd91e786	-0.07124238
222	0xbddcfdf4	-0.10790625
223	0xbcb03cde	-0.021513399
224	0x3c9c0648	0.019045964
225	0x3d9ffb7c	0.07811639
226	0x3b852b92	0.004064032
227	0x3d84ec02	0.064903274
228	0x3d768d05	0.06019308
229	0x3c111e1e	0.008857278
230	0xbdd57034	-0.10421792
231	0xbe1c98aa	-0.15292612
232	0x3c9a9e2a	0.018874247
233	0x3d6886b0	0.056769073
234	0xbcf61e7a	-0.03004383
235	0xbc9ed21c	-0.019387297
236	0xbc5f9068	-0.013645269
237	0x3d09cd4e	0.03364306
238	0xbd090bdc	-0.033458576
239	0xbdd204f6	-0.102548525
240	0xbd4e3d84	-0.050351635
241	0x3d861f2f	0.065489165
242	0xbe362e70	-0.17791152
243	0xbd9e07ab	-0.07716306
244	0xbda96fa0	-0.08273244
245	0xbd08438a	-0.033267535
246	0xbd015cfc	-0.031582817
247	0xbd1ad138	-0.037797183
248	0xbd3c563e	-0.045980684
249	0x3d9a923d	0.07547424
250	0x3d0abf5c	0.0338739
251	0xbe11e434	-0.14247209
252	0x3d0766b9	0.03305695
253	0xbb3f3968	-0.0029178504
254	0xbd3caaf5	-0.046061475
255	0x3d126401	0.035739902

h2.weight f4 [128, 256]
0	0x3d07cab6	0.033152305
1	0x3ce6d6dc	0.028178625
2	0xbda35362	-0.079748884
3	0xbd9c26f6	-0.07624619
4	0x3cf462eb	0.029832324
5	0xbd90b504	-0.07065776
6	0xbd689ca8	-0.056790024
7	0xbd234708	-0.039862663
8	0xbd63c03a	-0.055603243
9	0xbce07260	-0.027398288
10	0x3d11fc40	0.035640955
11	0xbbead830	-0.007166885
12	0xbb907070	-0.004407935
13	0xbc8a42e1	-0.016877593
14	0xbd5a15e2	-0.053243525
15	0xbd22ee9a	-0.03977833
16	0x3c653518	0.013989709
17	0xbc95c8cc	-0.018284224
18	0xbd15c389	-0.03656343
19	0x3d1b464a	0.03790883
20	0xbd7e3b0c	-0.06206803
21	0xbd83a336	-0.064276144
22	0xbc46dcc8	-0.012137599
23	0xbc5b0b60	-0.013369411
24	0xbd3154f6	-0.043293916
25	0x3cc4c384	0.02401901
26	0xbd9d08d0	-0.076676965
27	0xbd6b6638	-0.05747053
28	0x3d02c646	0.03192737
29	0xbd1a3634	-0.03764935
30	0x3cb5285a	0.022113968
31	0x3d1f00a8	0.038818985
32	0x3c53831a	0.012909675
33	0x3be954a0	0.007120684
34	0x3cd56e75	0.026053647
35	0xbd9bd5ac	-0.07609114
36	0xbb25b840	-0.0025286824
37	0xbcbb6494	-0.022875108
38	0xbd637c69	-0.05553857
39	0x3cdf7e9c	0.027282052
40	0xbc097919	-0.008390688
41	0x3cb96f5e	0.022636112
42	0x3d06dacf	0.032923516
43	0xbc62174f	-0.0137995025
44	0xb9b6cee3	-0.00034867888
45	0xbd3bb048	-0.04582241
46	0x3cf6f618	0.030146644
47	0x3cd34104	0.025787838
48	0xbd87af81	-0.066252716
49	0xbd7b024a	-0.06128148
50	0x397975d7	0.00023790389
51	0xbd90bef2	-0.0706767
52	0xbd76603a	-0.060150363
53	0x3cd43ee0	0.025908887
54	0xbd8589ff	-0.06520461
55	0x3d71d738	0.05904314
56	0xbc3e0670	-0.0115982145
57	0xbd676e34	-0.056501582
58	0x3c2a2110	0.010383859
59	0xba5598be	-0.00081480655
60	0xbc2262bc	-0.009911235
61	0xbd52d3e1	-0.051471595
62	0xbc90239c	-0.017595105
63	0x3ccd6e80	0.025077105
64	0xbd4bf892	-0.049797602
65	0x3d686236	0.056734286
66	0x3cd0a674	0.025469996
67	0xbd3c337e	-0.045947544
68	0x3c8d5b0a	0.017255325
69	0x3cf64912	0.03006414
70	0x3a723ecf	0.00092409266
71	0xbd4a146a	-0.049335875
72	0xbd816d47	-0.06319671
73	0x3cb2885c	0.021793537
74	0xbd027c0a	-0.031856574
75	0x3c54b060	0.012981504
76	0xbcca4bd5	-0.024694363
77	0xbd2ef0a8	-0.042709976
78	0x3cee0598	0.029055402
79	0x3d7e9366	0.06215229
80	0xbd30c0e0	-0.04315269
81	0x3c7bbb4d	0.01536448
82	0xbd611db4	-0.054959968
83	0x3c3c6eb2	0.011501001
84	0x3b2d15fe	0.0026410813
85	0xbd151ba6	-0.03640332
86	0xbd55d75e	-0.052207343
87	0xbd0b419b	-0.033998113
88	0x3d2e4adc	0.04255186
89	0xbc9ead34	-0.019369699
90	0xbd1f686e	-0.03891795
91	0x3c56d9a0	0.013113409
92	0xbc2aec70	-0.010432348
93	0x3c99128c	0.018685602
94	0x3ce7185c	0.028209858
95	0xbc48fc08	-0.01226712
96	0x3c9fc554	0.019503273
97	0xbd13d1be	-0.036088698
98	0x3d47d80c	0.048790023
99	0xbd80f565	-0.06296805
100	0xbd63b704	-0.05559446
101	0xbc920193	-0.017823016
102	0x3bfc3649	0.007696901
103	0xbd301ede	-0.042998187
104	0xbce279c8	-0.02764596
105	0xbd64f4df	-0.05589759
106	0x3d38bb0a	0.04510025
107	0xbd979c6f	-0.07402884
108	0x3ccdbd28	0.02511461
109	0xbb7e3dc0	-0.003879413
110	0x3ce13c2c	0.027494512
111	0x3c2ddfd0	0.010612443
112	0x3c9dbdb4	0.019255497
113	0xbd5d1114	-0.053971365
114	0xbd128444	-0.03577067
115	0x3ca9d297	0.0207303
116	0x3cfdfdfe	0.031004902
117	0xbd277e9e	-0.040892236
118	0xbb83ebd0	-0.004025914
119	0x3cdb97f3	0.026805853
120	0xbc12fe52	-0.0089717675
121	0x39fe9ba5	0.0004856262
122	0x3d58ffb6	0.05297824
123	0xbc9ded11	-0.019278081
124	0xbd1b4d64	-0.037915602
125	0xbc9c8a1b	-0.019108823
126	0xbd1d374a	-0.038382806
127	0x3cfc5563	0.030802434
128	0xbd603045	-0.054733533
129	0x3d272e3a	0.04081557
130	0xbbbac2b0	-0.005699478
131	0xbd7c6208	-0.061616927
132	0xbc8b08c4	-0.016971953
133	0x3d1015c1	0.035176996
134	0xbccdb34a	-0.025109906
135	0xbbf53e23	-0.007484214
136	0xbcfa6688	-0.030566469
137	0xbd10caf0	-0.035349786
138	0x3cf7ff68	0.030273154
139	0x3b76edd8	0.0037678387
140	0x3d72729e	0.05919134
141	0xbd7db4e2	-0.06194008
142	0xbc9f1ebc	-0.019423835
143	0xbd2b240e	-0.04178243
144	0x3d14f8d8	0.03637013
145	0x3d132c88	0.03593114
146	0xbc963bf0	-0.018339127
147	0xbda3fd51	-0.08007301
148	0xbb8b9c40	-0.00426057
149	0x3d34da82	0.044153698
150	0x3d11c68e	0.035589747
151	0xbd0bcce4	-0.034130946
152	0x3c9a37dc	0.018825464
153	0xbc57b7b0	-0.013166353
154	0x3d180ee8	0.03712359
155	0xbd17651a	-0.036961652
156	0xbcf9e79c	-0.030505948
157	0x3c6a5e78	0.01430475
158	0x3d5cc6d4	0.053900555
159	0xbd834cd2	-0.06411137
160	0xbd481f6d	-0.048858095
161	0x3d39e578	0.045384854
162	0xbcf5be44	-0.029997952
163	0x3c94df40	0.01817286
164	0xbd024a66	-0.031809233
165	0x3c5c2b20	0.013438016
166	0xbd90a133	-0.07061996
167	0x3c114e38	0.008868746
168	0x3d538696	0.051642023
169	0xbc2aed30	-0.0104325265
170	0xbd25341f	-0.04033291
171	0xbcd86e0c	-0.026419662
172	0x3c8afea2	0.016967122
173	0xbc91e7d3	-0.017810738
174	0x3c4134b8	0.011792354
175	0xbc9cc120	-0.019135058
176	0xbd04d8f6	-0.032433473
177	0xbdb26ea3	-0.087125085
178	0xbc46cbf0	-0.012133583
179	0x3c104b08	0.008806951
180	0x3b9c9966	0.0047790287
181	0xbcd10e58	-0.025519535
182	0x3d01c1b2	0.031678863
183	0xbcfa8a54	-0.030583538
184	0xbcf68ab0	-0.030095428
185	0x3d401ada	0.046900608
186	0xbcaea77c	-0.021320097
187	0xbd768f72	-0.060195394
188	0x3cb55884	0.022136934
189	0xbd7d3341	-0.061816458
190	0xbc9e783c	-0.019344442
191	0xbd6a49a8	-0.05719915
192	0xbd064276	-0.032778226
193	0xbbfe66c4	-0.0077637155
194	0xbc788a4a	-0.015169689
195	0xbd0556ec	-0.0325536
196	0x3c054268	0.008133508
197	0xbcf14b44	-0.029454835
198	0xbcaf4781	-0.0213964
199	0xbc8e75b0	-0.017390102
200	0xbda6bbb7	-0.081412725
201	0x3ce31141	0.027718188
202	0xbd63cee0	-0.055617213
203	0xbca673dc	-0.020318918
204	0x3d6e6490	0.058201373
205	0xbcc70eac	-0.024298988
206	0xb910813d	-0.00013781055
207	0xbc939ac8	-0.018018141
208	0xbd11802c	-0.035522625
209	0xbc9fef1f	-0.019523202
210	0x3b1d8640	0.0024036318
211	0x3caf050c	0.021364711
212	0xbb019720	-0.0019773915
213	0x3cd33806	0.02578355
214	0xbd8d7863	-0.069077276
215	0xbd2a0d72	-0.04151673
216	0x3c275660	0.0102134645
217	0xbd087693	-0.033316206
218	0x3d165cdd	0.036709655
219	0xbc932d79	-0.017966019
220	0x3c8e1a94	0.017346658
221	0xbda28093	-0.0793468
222	0xbd3ac19b	-0.045594793
223	0xbc571d70	-0.013129577
224	0xbd886142	-0.066591755
225	0xbd691e46	-0.056913637
226	0x3d3b1494	0.04567392
227	0xbd62b2a6	-0.055346154
228	0xbd02b03f	-0.031906363
229	0x3d666dac	0.056256935
230	0xbda68bf9	-0.081321664
231	0xbcb07740	-0.021541238
232	0xbaa9f0ca	-0.0012965437
233	0x3d21db41	0.039515737
234	0xbb91c140	-0.004448086
235	0xbd5df2fd	-0.05418681
236	0xbd6e1682	-0.058126934
237	0x3d403544	0.046925798
238	0x3d37ece2	0.044903643
239	0x3b695de0	0.0035608932
240	0xbd849beb	-0.064750515
241	0xbb306db5	-0.002692086
242	0xbca920a4	-0.020645447
243	0xbda85de0	-0.0822103
244	0xbcf02777	-0.029315693
245	0xbd38b80b	-0.045097392
246	0xbc2bf978	-0.01049649
247	0x3cfd9120	0.03095299
248	0x3cbdb58c	0.023157857
249	0xbc2142a9	-0.009842553
250	0xbc92d811	-0.017925294
251	0x3d6a518e	0.057206683
252	0xbcac2a3c	-0.021016233
253	0xbcc9e281	-0.024644138
254	0x3bc7c52a	0.006096502
255	0x3d02fc6c	0.03197901

h3.weight f4 [11, 128]
0	0x3d5813f3	0.0527534
1	0xbe234d28	-0.15947402
2	0x3df2f5c7	0.118632846
3	0x3dea9837	0.11454814
4	0x3d9ce607	0.07661062
5	0xbcb177c7	-0.02166356
6	0xbe5f2320	-0.21790743
7	0x3d9203e8	0.07129651
8	0xbe11273f	-0.14175127
9	0xbdc1f651	-0.09470809
10	0xbdef62ac	-0.11688742
11	0xbd8b9b60	-0.06816745
12	0x3d561f88	0.052276164
13	0x3d313542	0.04326368
14	0xbd42e5ae	-0.04758232
15	0xbe007ce8	-0.12547648
16	0x3d040750	0.032233536
17	0xbd08be64	-0.033384696
18	0x3dd2753d	0.10276268
19	0x3c024833	0.007951784
20	0xbd7929a7	-0.06083074
21	0xbd839f21	-0.06426836
22	0xbdac3ccb	-0.08410033
23	0xbdc7ad74	-0.097498804
24	0xbbce9bc8	-0.0063051917
25	0x3c7286f5	0.014802684
26	0x3d3a8ae8	0.045542628
27	0x3d4e4674	0.050360158
28	0xbe417b44	-0.18894678
29	0xbe54ff20	-0.20800447
30	0x3d3527f9	0.044227574
31	0xbe068c40	-0.13139439
32	0x3c9f6bc6	0.01946057
33	0xbd9872ce	-0.07443772
34	0xbdd36392	-0.10321726
35	0xbe05eadb	-0.13077872
36	0xbc2f1dc2	-0.010688247
37	0xbd8df4a5	-0.06931428
38	0xbd53ed30	-0.05173987
39	0x3d206ee7	0.039168265
40	0x3ae7f82a	0.001769786
41	0x3c47a1ff	0.012184619
42	0x3d8cd62a	0.06876786
43	0xbd03ef90	-0.032210886
44	0xbe2b9e61	-0.16759636
45	0xbb9585cb	-0.0045630685
46	0x3cb37af5	0.021909216
47	0xbd9444ab	-0.0723966
48	0x3ddedb8f	0.10881721
49	0xbda015ed	-0.07816682
50	0xbd9a3174	-0.07528964
51	0x3ce7c3f0	0.028291672
52	0xbe25d884	-0.16195875
53	0x3d2070cc	0.03917007
54	0xbe323035	-0.17401202
55	0xbdfe2643	-0.124096416
56	0x3a24d561	0.00062878995
57	0xbc32bdd1	-0.010909514
58	0xbd928a40	-0.07155275
59	0xbce01d6a	-0.027357776
60	0x3abeba5f	0.0014551393
61	0xbe32d410	-0.17463708
62	0x3e00bc11	0.12571742
63	0x3cc11941	0.023571612
64	0xbc650d57	-0.013980231
65	0x3d321893	0.043480467
66	0xbd9fcac2	-0.07802345
67	0xbdc46812	-0.09590162
68	0xbe413f3a	-0.18871775
69	0xbde4b28d	-0.11166868
70	0xbdff466e	-0.12464605
71	0xbe14af4b	-0.14519994
72	0xbdc79819	-0.09745807
73	0x3d50b5a2	0.05095447
74	0xbe020830	-0.12698436
75	0xbdb8db21	-0.090261705
76	0x3cf42e4d	0.029807234
77	0x3d8544b4	0.06507245
78	0x3de2e95e	0.110796675
79	0xbe30d96f	-0.17270444
80	0xbe11af6b	-0.14227073
81	0xbd5b9e69	-0.05361787
82	0x3d69f77c	0.057120785
83	0x3cbc4bf0	0.022985429
84	0xbbe6bf9b	-0.007041884
85	0xbe727e6e	-0.23681042
86	0xbe5e6a8d	-0.21720333
87	0x3d51aa6b	0.051187914
88	0x3d429231	0.0475027
89	0xbc552836	-0.013010075
90	0xbe1dba0a	-0.15403
91	0x3b994a37	0.0046780366
92	0x3d2974a8	0.041371018
93	0x3d4145aa	0.047185577
94	0xbe103e9b	-0.14086382
95	0x3d7572c4	0.059923902
96	0xbbb060a1	-0.005382613
97	0xbd066fb4	-0.032821372
98	0x3ddee33c	0.10883185
99	0xbdd53106	-0.10409741
100	0x3d38220d	0.04495435
101	0x3cf7db64	0.03025598
102	0x3d39bfcd	0.04534893
103	0x3cd15fbc	0.025558345
104	0x3dcf1315	0.101110615
105	0xbcda9347	-0.026681555
106	0x3dc95f45	0.09832624
107	0xbe08663a	-0.13320246
108	0xbdea976a	-0.11454661
109	0xbd8b180a	-0.067916945
110	0x3d409a85	0.04702236
111	0xbd497433	-0.04918308
112	0xbe8be0e1	-0.27320006
113	0x3d68e9bf	0.056863543
114	0xbc96eef0	-0.018424481
115	0x3e22e97b	0.15909378
116	0x3dca7d99	0.09887237
117	0xbde5a42e	-0.112129554
118	0x3e19ab3e	0.1500673
119	0xbdefe2a8	-0.11713153
120	0xbd9e75d7	-0.0773732
121	0xbd5862f9	-0.052828763
122	0xbbbff7de	-0.0058584055
123	0xbc94bfbc	-0.018157832
124	0xbe1aefde	-0.15130565
125	0x3d7222b1	0.059115116
126	0x3e145244	0.14484507
127	0x3d8154d9	0.063150115
128	0xbd47f2d9	-0.048815582
129	0x3d296709	0.041358028
130	0x3a863547	0.0010239267
131	0x3df8e52f	0.12153088
132	0x3d043c3d	0.03228401
133	0xbc3791f9	-0.011204236
134	0x3dc09ee7	0.09405308
135	0x3c039f07	0.008033521
136	0xbd93f811	-0.07225049
137	0x3daeebb2	0.08541049
138	0xbd209666	-0.03920593
139	0xbdc63a98	-0.096791446
140	0x3cbc2817	0.022968335
141	0x3cbdbed3	0.023162281
142	0x3c17e278	0.009270303
143	0xbdc9f965	-0.09862021
144	0x3d8b83ba	0.06812234
145	0x3e6b238e	0.22962782
146	0x3d33240b	0.043735545
147	0xbd14ac78	-0.03629729
148	0xbdcf70d8	-0.10128945
149	0xbcccd8b9	-0.025005685
150	0xbb12afff	-0.0022382734
151	0x3d74a324	0.059725896
152	0xbdb73700	-0.08946037
153	0xbe90091a	-0.28131944
154	0x3ca786f1	0.020450087
155	0xbc5abd67	-0.013350821
156	0xbd7d0718	-0.061774343
157	0xbe37c03c	-0.17944425
158	0xbda6e5b6	-0.08149283
159	0xbe29d984	-0.16586882
160	0xbdacae23	-0.084316514
161	0x3d4e8fcc	0.050430104
162	0x3ce15fa5	0.027511427
163	0xbd517f98	-0.051147074
164	0xbbe2b7b1	-0.0069188704
165	0xbdcead13	-0.10091605
166	0x3d49a7d1	0.049232308
167	0x3cf484f5	0.029848555
168	0xbd50a3bf	-0.05093741
169	0x3e05eb5c	0.13078064
170	0x3d10a007	0.035308864
171	0xbdc0ca7f	-0.09413623
172	0x3bf3ee6b	0.007444193
173	0xbda0bae3	-0.07848146
174	0x3d786cef	0.060650762
175	0x3c91fd8d	0.017821098
176	0xbe1c4767	-0.15261613
177	0x3d932a49	0.071858
178	0x3da11a23	0.07866313
179	0xbce7e488	-0.028307214
180	0x3df13638	0.117779195
181	0xbd341e98	-0.04397449
182	0xbcfd493f	-0.030918716
183	0x3d4a14f4	0.04933639
184	0xbd341d0b	-0.04397301
185	0x3de70be4	0.11281565
186	0xbdfc917d	-0.12332437
187	0xbe1f2ae4	-0.15543705
188	0x3ccb3e36	0.024809938
189	0x3d970ec5	0.07375864
190	0xbdd5cfb6	-0.10440008
191	0xbdb702fe	-0.089361176
192	0xbe10760f	-0.14107536
193	0xbe1f0d37	-0.15532385
194	0xbd1ed945	-0.038781423
195	0xbd55456c	-0.05206816
196	0xbe2337ab	-0.15939204
197	0xbd08d644	-0.033407465
198	0xbb5df606	-0.0033868565
199	0x3e0553aa	0.13020197
200	0x3e14c382	0.14527705
201	0xbd926872	-0.071488276
202	0x3db1ca01	0.08681107
203	0x3d042083	0.032257568
204	0xbd936eb4	-0.07198849
205	0xbe31c478	-0.17360103
206	0xbc89b274	-0.016808726
207	0x3d7db0a2	0.06193603
208	0xbe271806	-0.16317758
209	0xbd2aa677	-0.04166266
210	0x3e26ceb7	0.16289793
211	0xbd5b43b6	-0.05353137
212	0xbcb34e9c	-0.02188807
213	0xbe6043fe	-0.21900937
214	0xbd674bc5	-0.056468744
215	0x3da26db5	0.07931081
216	0x3ddc1988	0.10747057
217	0xbd67c515	-0.056584436
218	0xbdbee802	-0.09321596
219	0x3e102216	0.14075503
220	0x3da1998c	0.07890615
221	0x3dfebf6f	0.12438857
222	0x3d14696e	0.036233358
223	0xbd2ede6c	-0.042692587
224	0xbe22ddc1	-0.15904905
225	0xbc14bbcd	-0.009077978
226	0x3c7681ac	0.015045565
227	0x3da72922	0.08162142
228	0xbd869103	-0.065706275
229	0x3c5b539b	0.013386632
230	0xbe27b809	-0.16378798
231	0xbc926548	-0.01787056
232	0x3ded131d	0.11575911
233	0xbd13e9a0	-0.036111474
234	0x3d3680ad	0.04455631
235	0xbe0c33c9	-0.1369163
236	0xbdc0c36d	-0.094122745
237	0xbd639a62	-0.055567153
238	0xbd4b9d99	-0.049710844
239	0x3da82540	0.0821023
240	0xbe9460df	-0.28980157
241	0xbd67e95e	-0.05661904
242	0x3da9f7a1	0.082991846
243	0xbda6715d	-0.08127091
244	0xbdfeed33	-0.12447586
245	0xbc871c43	-0.016492968
246	0xbdaba0b5	-0.08380262
247	0x3cbab62a	0.02279194
248	0xbd484fad	-0.04890411
249	0xbd3e24ac	-0.04642169
250	0xbcb93fd8	-0.02261345
251	0x3924cbd0	0.00015716185
252	0xbcd63541	-0.02614844
253	0xbcd4417b	-0.02591013
254	0x3d6a2e1a	0.057172872
255	0x3cb50c6d	0.022100652
