FPGA/quantized_statedict_exportable.pt (torch_old, 487726 bytes, 4 tensors)

input.weight f4 [256, 72]
0.01959009 0.0044792006 -0.04242431 -0.090805545 0.08401343 -0.07737467 0.10591167 0.03554534
-0.2187003 0.021432685 0.056780007 0.050082795 0.14500962 -0.21859564 0.052344274 0.039553624
-0.0054915124 -0.043362338 0.059014592 -0.20524468 0.027848797 -0.021015476 -0.0159146 -0.18868311
-0.06842983 0.04610287 0.04128125 0.057836827 0.05480632 0.00050204643 -0.05415256 -0.006268926
-0.052947428 -0.03807278 0.05627675 -0.0690621 -0.05539643 0.05550183 0.05173851 -0.044197995
-0.0323757 -0.083477035 0.05001287 -0.00844047 0.112588234 0.032677397 -0.15651318 0.050830554
0.15824963 0.071234055 0.079350404 0.10605599 0.15018134 -0.10595793 -0.08633482 0.07726123
0.015985139 -0.05168684 0.10642996 -0.1270381 0.046582587 0.009087919 0.06378593 0.04207767
-0.0057264073 0.07375412 0.118734926 0.10206628 -0.06597693 -0.0633281 -0.0061831847 -0.1285937
-0.03738576 0.044403657 -0.07041546 0.15223019 0.0263378 0.008246707 0.06625024 -0.08423458
0.065143876 -0.05743432 -0.0055784574 0.019124221 0.09378362 -0.019934714 -0.041094203 -0.02143474
0.06461318 0.0854065 0.025448 -0.1251894 0.15202783 0.21357648 -0.21890603 -0.3357216
-0.19125621 0.13030663 -0.0056724516 0.18726452 0.077718526 -0.053984474 0.02105731 0.06741695
-0.07188399 0.070653506 0.059264876 0.009707328 -0.0019404573 -0.0402277 -0.08685128 -0.0858128
0.054033756 -0.094663985 0.011029521 -0.18733804 0.11335796 -0.08826709 0.014172092 -0.10248036
0.15905082 0.11414325 -0.21580066 0.11799177 0.26302204 -0.22344868 0.059473265 0.11270047
-0.0751408 0.189696 0.104745254 0.011008007 -0.13526116 -0.037013717 0.079973996 0.03406852
-0.08894748 -0.07563729 -0.05358965 -0.094134524 -0.15925254 -0.11448312 0.092389874 -0.051000815
-0.017913911 -0.054777425 -0.039825823 -0.08686994 0.067377225 0.11450482 0.07703437 0.04735537
-0.036887567 -0.08758997 0.120644815 -0.025828337 -0.05283848 -0.082345694 -0.08358784 0.0329869
0.061713044 -0.105116025 -0.11200222 -0.008711031 -0.103929915 0.098154016 -0.0026597164 -0.096405536
0.039416578 0.09624361 0.02720268 -0.075582825 0.0097379815 -0.08921454 0.06520051 -0.010632341
0.036582544 -0.009510582 -0.084261045 0.038052086 0.10992087 -0.013883414 -0.033414904 -0.08628397
-0.0039025282 0.11664675 -0.022029411 -0.02574102 0.0709582 -0.10608067 -0.007965136 -0.039896976
-0.011303271 -0.07118456 -0.005552222 0.005886679 0.012221949 -0.067713656 0.018476872 -0.101762556
0.006470288 0.01780555 -0.036594033 -0.010299218 0.007838199 0.070004456 0.11507039 -0.09652782
0.10150354 0.050267585 0.10486291 0.09571636 -0.050869163 -0.06063408 0.07936204 0.07851854
0.12714724 -0.048874967 0.06153831 -0.055607375 -0.017259061 0.05058495 0.011526228 0.09818915
0.17434415 -0.10726582 -0.012546694 0.003134013 0.013608964 -0.06288872 0.1923898 -0.032106794
-0.07718055 -0.06679491 0.04196448 -0.10649975 -0.17341876 0.109467305 0.14967689 -0.15328483
-0.056169663 -0.010349859 -0.0110942805 -0.09365916 0.020669362 -0.027828109 -0.068486355 -0.19288278
-0.10210165 0.06645119 -0.06187168 -0.010157874 0.11019613 -0.09807838 -0.08996506 0.13718832
00000000: 657b a03c 42c6 923b 1dc5 2dbd 42f8 b9bd
00000010: 3c0f ac3d 9c76 9ebd 38e8 d83d fe97 113d
00000020: f9f2 5fbe 9993 af3c 2792 683d 9e23 4d3d
00000030: 677d 143e 89d7 5fbe f366 563d fb02 223d
00000040: 25f2 b3bb b59c 31bd 49b9 713d a92b 52be
00000050: 2923 e43c a628 acbc 565f 82bc 2536 41be
00000060: f024 8cbd 5dd6 3c3d 8716 293d 4fe6 6c3d
00000070: 987c 603d c49b 033a 13cf 5dbd 906b cdbb
00000080: 67df 58bd 34f2 1bbd 7382 663d 6e70 8dbd
00000090: 5ee7 62bd e355 633d c3eb 533d f508 35bd
000000a0: 629c 04bd 02f6 aabd 4cda 4c3d e649 0abc
000000b0: a994 e63d bcd8 053d fe44 20be b333 503d
000000c0: 310c 223e 29e3 913d 7782 a23d e233 d93d
000000d0: 23c9 193e 7900 d9bd 4fd0 b0bd 233b 9e3d
000000e0: 44f3 823c 94b5 53bd f3f7 d93d 4716 02be
000000f0: 62cd 3e3d 7fe5 143c 33a2 823d a359 2c3d
00000100: 96a4 bbbb 660c 973d 4c2b f33d 2008 d13d
00000110: ea1e 87bd 2ab2 81bd 509c cabb 11ae 03be
00000120: d021 19bd 9ce0 353d fb35 90bd 3be2 1b3e
00000130: 5fc2 d73c 321d 073c 35ae 873d 2e83 acbd
00000140: 276a 853d 4040 6bbd 7ecb b6bb 66aa 9c3c
00000150: a011 c03d 204e a3bc 6552 28bd e897 afbc
00000160: ea53 843d 9ae9 ae3d 5378 d03c a631 00be
00000170: 2fad 1b3e cbb3 5a3e e728 60be b4e3 abbe
00000180: abd8 43be 1a6f 053e f9df b9bb 45c2 3f3e
00000190: e42a 9f3d d31e 5dbd 6180 ac3c e611 8a3d
000001a0: ea37 93bd c9b2 903d babf 723d 7c0b 1f3c
000001b0: f156 feba cdc5 24bd 15df b1bd 9fbe afbd
000001c0: 8052 5d3d 31df c1bd 2ab5 343c 8bd5 3fbe
000001d0: 3828 e83d 60c5 b4bd 1032 683c 39e1 d1bd
000001e0: 38de 223e f0c3 e93d d9fa 5cbe aba5 f13d
000001f0: d3aa 863e bbcf 64be 3d9a 733d 81cf e63d
00000200: 6be3 99bd ab3f 423e ae84 d63d ee5a 343c
00000210: e781 0abe b29b 17bd 68c9 a33d 6f8b 0b3d
00000220: 192a b6bd b9e7 9abd d280 5bbd 9ac9 c0bd
00000230: 1913 23be 2076 eabd e736 bd3d 3be6 50bd
00000240: 32c0 92bc 4b5e 60bd 6720 23bd dee8 b1bd
00000250: 12fd 893d 8181 ea3d 32c4 9d3d b4f7 413d
00000260: 6b17 17bd 5f62 b3bd a114 f73d f395 d3bc
00000270: 296d 58bd dca4 a8bd 1a30 abbd 461d 073d
00000280: d1c6 7c3d 1247 d7bd 6b61 e5bd b6b8 0ebc
00000290: 35d9 d4bd f904 c93d a34e 2ebb 4470 c5bd
000002a0: 4773 213d 5f1b c53d 28d8 de3c 2bcb 9abd
000002b0: 0e8c 1f3c 1db6 b6bd d887 853d 4533 2ebc
000002c0: 94d7 153d 46d2 1bbc 0e91 acbd 81dc 1b3d
000002d0: 311e e13d 4277 63bc 11de 08bd a6b5 b0bd
000002e0: 8fc1 7fbb 7ee4 ee3d 0677 b4bc d5de d2bc
000002f0: 8852 913d d340 d9bd 3480 02bc 036b 23bd
00000300: 5b31 39bc 36c9 91bd 6aef b5bb 0be5 c03b
00000310: 923e 483c 75ad 8abd cf5c 973c e368 d0bd
00000320: b604 d43b f2dc 913c a0e3 15bd 0dbe 28bc
00000330: ca6b 003c 7f5e 8f3d 06aa eb3d 61b0 c5bd
00000340: 17e1 cf3d 62e5 4d3d 5ec2 d63d f006 c43d
00000350: 2f5c 50bd 715b 78bd 9188 a23d 54ce a03d
00000360: e332 023e 1e31 48bd 980f 7c3d 8fc4 63bd
00000370: e062 8dbc 2a32 4f3d 81d8 3c3c 6517 c93d
00000380: 4687 323e 2fae dbbd a690 4dbc 0364 4d3b
00000390: 22f8 5e3c cdcb 80bd d501 453e 6a82 03bd
000003a0: d610 9ebd c5cb 88bd f2e2 2b3d 8a1c dabd
000003b0: b094 31be 6530 e03d e644 193e b3f6 1cbe
000003c0: 2912 66bd 7492 29bc c9c4 35bc 60d0 bfbd
000003d0: cb52 a93c c6f7 e3bc 9342 8cbd 1083 45be
000003e0: ab1a d1bd 9017 883d 296d 7dbd 366d 26bc
000003f0: 82ae e13d 51dd c8bd 9a3f b8bd 187b 0c3e

h1.weight f4 [256, 256]
-0.003464509 -0.09072626 0.0244056 -0.13936937 -0.05190648 0.043297812 -0.02129145 -0.037710574
0.036825873 0.02112523 -0.07239906 -0.06983668 0.020513194 -0.005351028 -0.11402433 -0.04715191
0.05048675 0.052525174 0.028669879 0.035686627 0.016273854 -0.01082059 -0.12410628 -0.021690551
-0.035423066 0.009491804 0.08658129 0.06305215 0.11087631 -0.045768164 -0.005223952 0.025420291
-0.022604568 -0.15317646 -0.034793578 -0.01315348 -0.039414883 -0.014106622 -0.015781377 0.039397996
-0.033008177 -0.043611616 0.059524108 -0.069221236 0.06518525 0.071032844 0.06603762 0.059581526
-0.05960732 -0.048332572 0.050242264 0.05794999 -0.051405665 0.005118 -0.048728403 0.013201964
0.009836817 0.10052666 0.0060016806 -0.094759785 0.020043312 -0.16381389 0.012632359 0.031648446
0.012938166 -0.0515286 -0.052062213 0.10076142 -0.019348204 0.05361608 -0.0069472874 -0.04893776
-0.053428866 -0.051157556 -0.058690608 -0.009734118 0.09292798 0.010359073 -0.030460263 -0.046983823
-0.00518564 0.07541423 0.047128066 -0.0108507285 -0.037841406 -0.0024415613 -0.0434432 -0.043115392
-0.03795872 0.056528006 -0.00925554 -0.03889436 -0.075728804 -0.0107766725 0.048486456 -0.030107854
0.03799352 0.065363854 -0.03654939 -0.051737938 0.023295738 -0.030046025 0.054870814 0.05289933
0.11849638 0.04172222 0.048827548 0.059091095 -0.028313551 0.03978594 0.05297495 -0.03876201
0.007330809 0.0064025503 -0.03733947 -0.0971714 0.004307645 0.01848494 0.12247154 0.004279896
-0.028826814 0.044556696 0.011278966 -0.0021384754 0.017816367 -0.025138868 0.020009352 -0.055396818
0.04924659 -0.020876123 0.07103048 0.059882294 -0.05746102 -0.032640997 0.063077465 -0.029216088
-0.012805686 0.020838903 -0.027598647 -0.045394626 0.06599084 -0.022168748 -0.05042088 -0.06956038
0.06491005 0.0029900065 -0.044181988 0.037719082 -0.04932982 0.048852343 0.039891776 0.0032357946
-0.063699484 -0.1274198 -0.063104525 0.03127052 -0.12766415 0.05831616 -0.00447091 -0.007968747
0.0708502 0.033875853 -0.043917697 -0.0723243 -0.014576586 -0.04719544 -0.022567876 0.018010767
0.0979821 0.008004062 0.042860832 -0.0741849 0.033117894 0.051976424 0.0767336 0.019977728
0.045070793 0.038249657 -0.092623875 0.056859765 -0.03846222 -0.0043312595 -0.025959017 0.01752054
0.0215101 0.055005446 -0.004334213 0.0012132576 0.030689899 -0.0049613733 -0.05612048 -0.04705507
-0.021020548 -0.076242015 0.011105744 -0.050685547 -0.012166245 0.024524273 -0.048381954 -0.051612012
0.1258324 0.03279497 0.047948696 -0.044209033 -0.024697037 -0.015818516 -0.026006984 -0.013193546
0.077220246 0.019804973 -0.10575221 0.029753825 0.095795 0.09833253 -0.12745892 -0.006161828
-0.015925234 -0.1372171 0.022461822 -0.019996842 -0.027275892 -0.095764674 -0.0091940835 -0.042903375
0.007831731 0.13451585 0.11445594 0.051421598 -0.007339752 0.016772082 -0.13917086 -0.041752588
0.072229095 0.054983452 -0.034301214 -0.09945542 0.043605216 0.022428824 -0.046527617 -0.05945289
-0.033404153 0.15196902 -0.06744678 -0.016050031 0.0079103215 -0.0018623282 -0.051693268 0.016058728
-0.05719502 -0.0015106463 0.047878224 -0.03858432 0.019233754 -0.031499535 0.10102097 0.023988748
00000000: d10c 63bb b0ce b9bd 41ee c73c d8b6 0ebe
00000010: e49b 54bd 0c59 313d 686b aebc 6776 1abd
00000020: bad6 163d d10e ad3c f545 94bd 8906 8fbd
00000030: 490b a83c ad57 afbb 9785 e9bd 5c22 41bd
00000040: 32cb 4e3d a324 573d 18dd ea3c 242c 123d
00000050: bf50 853c d848 31bc 6f2b febd 62b0 b1bc
00000060: c717 11bd 8383 1b3c 8851 b13d 7c21 813d
00000070: 1e13 e33d 6677 3bbd af2d abbb 373e d03c
00000080: 372d b9bc 4ada 1cbe b683 0ebd b281 57bc
00000090: 8071 21bd 761f 67bc f247 81bc cb5f 213d
000000a0: 9533 07bd 18a2 32bd 8dcf 733d ddc3 8dbd
000000b0: d87f 853d ab79 913d bb3e 873d c20b 743d
000000c0: ce26 74bd 60f8 45bd d5ca 4d3d f85c 6d3d
000000d0: bf8e 52bd e5b4 a73b 6f97 47bd 0d4d 583c
000000e0: 9a2a 213c ece0 cd3d bfa9 c43b 6b11 c2bd
000000f0: df31 a43c d4be 27be f4f7 4e3c cda1 013d
00000100: 9afa 533c a70f 53bd 303f 55bd 015c ce3d
00000110: 2080 9ebc 899c 5b3d 12a6 e3bb f672 48bd
00000120: 3ad8 5abd 968a 51bd 9065 70bd da7b 1fbc
00000130: 0651 be3d 1ab9 293c cd87 f9bc 1c72 40bd
00000140: 4dec a9bb c772 9a3d 5c09 413d 41c7 31bc
00000150: 97ff 1abd 9a02 20bb 7ff1 31bd c499 30bd
00000160: 9a7a 1bbd e989 673d 8ca4 17bc b14f 1fbd
00000170: b417 9bbd a490 30bc bc99 463d bfa4 f6bc
00000180: 189f 1b3d 7cdd 853d d0b4 15bd 29eb 53bd
00000190: b4d6 be3c 1523 f6bc 38c0 603d f8ac 583d
000001a0: 3bae f23d ebe4 2a3d 65ff 473d 8109 723d
000001b0: d2f1 e7bc 95f6 223d 43fc 583d eac4 1ebd
000001c0: 4837 f03b 7ccc d13b 46f1 18bd cd01 c7bd
000001d0: 2527 8d3b bb6d 973c 5cd2 fa3d 5f3e 8c3b
000001e0: 3626 ecbc 1581 363d 6acb 383c aa25 0cbb
000001f0: a1f3 913c 07f0 cdbc a7ea a33c c6e7 62bd
00000200: cbb6 493d 6704 abbc 6e78 913d 2347 753d
00000210: 3f5c 6bbd 91b2 05bd c22e 813d 9456 efbc
00000220: f1ce 51bc 59b6 aa3c 8f16 e2bc b7ef 39bd
00000230: 3526 873d 3c9b b5bc 2086 4ebd ac75 8ebd
00000240: 8fef 843d fcf3 433b 2cf8 34bd 537f 1a3d
00000250: 110e 4abd 6519 483d 8f65 233d a00f 543b
00000260: e074 82bd 567a 02be f23c 81bd 8415 003d
00000270: 64ba 02be eddc 6e3d b680 92bb 598f 02bc
00000280: e919 913d 68c1 0a3d 0be3 33bd c31e 94bd
00000290: a2d2 6ebc 0150 41bd 44e0 b8bc 518b 933c
000002a0: d7aa c83d 7823 033c d78e 2f3d 41ee 97bd
000002b0: a1a6 073d 3be5 543d 8126 9d3d 55a8 a33c
000002c0: 279c 383d acab 1c3d 96b1 bdbd c9e5 683d
000002d0: 908a 1dbd 3ded 8dbb 01a8 d4bc 3c87 8f3c
000002e0: f335 b03c 644d 613d 0406 8ebb 2b06 9f3a
000002f0: 6269 fb3c 0493 a2bb 97de 65bd d1bc 40bd
00000300: 4933 acbc c624 9cbd def4 353c a69b 4fbd
00000310: ee54 47bc 21e7 c83c 282c 46bd 1e67 53bd
00000320: 35da 003e 0554 063d da65 443d 8814 35bd
00000330: 7151 cabc d595 81bc 990c d5bc be29 58bc
00000340: a625 9e3d 0a3e a23c 9d94 d8bd 4bbe f33c
00000350: 2b30 c43d 9162 c93d 9784 02be 29e9 c9bb
00000360: a375 82bc a482 0cbe db01 b83c 6bd0 a3bc
00000370: b171 dfbc 4520 c4bd c8a2 16bc 73bb 2fbd
00000380: a950 003c 86be 093e e067 ea3d 749f 523d
00000390: 4d82 f0bb 9b65 893c ce82 0ebe c304 2bbd
000003a0: d9ec 933d 5436 613d 6e7f 0cbd 49af cbbd
000003b0: 629b 323d a7bc b73c be93 3ebd e084 73bd
000003c0: cbd2 08bd c49d 1b3e 8a21 8abd 5b7b 83bc
000003d0: 4b9a 013c 5d19 f4ba 52bc 53bd 988d 833c
000003e0: 5345 6abd e100 c6ba f51b 443d 980a 1ebd
000003f0: 1b90 9d3c a805 01bd 15e4 ce3d 0d84 c43c

h2.weight f4 [128, 256]
0.08776809 0.059263565 -0.09230145 -0.06584485 0.014271923 -0.13908125 -0.015787544 -0.025144262
-0.032541905 -0.061740838 -0.032458607 -0.012081102 0.06792518 0.015716374 -0.038360443 -0.056552183
-0.062195726 -0.10517149 -0.0101582315 0.11662792 -0.102138825 -0.06733105 0.03506281 -0.024800615
-0.08277817 0.049037687 -0.059859972 -0.0955681 0.04645867 -0.07593542 0.11453945 -0.011292883
0.09506564 0.082545035 0.09797083 -0.050964538 0.03090226 0.0010983519 0.024747485 0.07740953
0.09189455 0.12637922 0.11243889 0.04893073 0.06384383 -0.06813422 0.053252008 0.10609679
-0.011157025 -0.07578166 0.07032589 -0.12513939 -0.11317701 0.008672319 0.009504285 0.13678151
-0.046377644 0.01268515 0.03776975 0.07096182 -0.035026398 -0.11839109 0.09722993 0.10132752
-0.09467798 0.08834393 0.03300334 -0.02952403 0.014337533 0.076972656 0.03829999 -0.0862212
-0.010371458 -0.015172169 0.035105307 -0.019168492 0.03775523 -0.1027606 0.030350316 0.039111197
-0.07431358 0.01934992 -0.10016226 0.099272855 -0.031723183 -0.04744964 -0.0054250304 -0.05668166
0.04018618 -0.08540907 -0.010428827 -0.008027362 -0.048741136 -0.030819705 0.086736076 -0.0064464444
0.07684538 -0.03649483 0.07064141 -0.10264305 -0.065144435 0.026253393 0.03183145 -0.024204565
-0.05625726 0.019450624 0.11995791 -0.013681096 0.055526275 -0.015454179 0.054512348 0.032198403
0.028479202 -0.081686504 -0.0409312 0.048730858 0.027983228 0.0039509004 -0.030937562 0.044751413
-0.03544451 0.014358474 0.089492485 0.06148555 0.032736152 0.063308954 -0.054426834 0.03547209
0.045112386 0.025842752 0.048850123 -0.10924082 -0.03221108 0.09188542 0.008946299 0.09572434
0.01958276 -0.031766355 -0.02968036 0.063701786 0.049309198 -0.13423409 -0.048752226 0.033554792
-0.0020994034 0.026245106 0.011004657 -0.0077270935 0.07517871 0.0004316931 0.07536682 -0.032894805
-0.016081948 -0.1088159 0.10362669 -0.01611315 0.027228286 -0.033614073 0.0033269282 -0.10838455
-0.008287581 0.015892684 0.006016774 -0.0117112035 -0.012375 -0.01755036 -0.013387576 0.048907794
0.08696769 0.028433966 -0.022542052 -0.091172904 -0.008319829 0.030035004 0.03694459 0.009163634
-0.035090994 -0.042985663 0.046259645 0.09359851 0.021954926 -0.04982759 0.081756465 -0.06558159
0.0019386515 0.13263828 -0.09124955 -0.009173382 0.05608633 -0.024900636 -0.028885104 -0.065532096
-0.065529495 0.07800784 0.038458265 0.036363117 -0.027530625 -0.06943391 0.018687075 -0.059023026
-0.1028647 0.045388803 -0.045206584 -0.074049816 0.081272185 -0.09387374 -0.032074008 -0.050084174
0.028566215 -0.00606433 0.015991492 0.030423831 0.04807075 0.15215996 0.03822402 -0.0024164869
0.00041633635 0.04003707 0.011920357 0.031735588 -0.051533584 -0.06707249 -0.010681227 -0.048089664
-0.01002185 -0.025235355 0.055935584 -0.11162186 -0.060610294 0.07618474 -0.05475589 -0.014552159
0.10256908 0.10718953 -0.04160697 -0.114890955 -0.037015807 0.049511924 0.13045251 0.015804805
-0.014662062 -0.017307358 -0.07194932 0.013355306 0.0056980364 -0.0063686096 -0.08357686 0.07029761
0.011999815 0.030025177 -0.022301476 0.03230355 -0.010467071 -0.069947846 0.055367578 -0.028384749
00000000: c2bf b33d 5abe 723d 8b08 bdbd aad9 86bd
00000010: c9d4 693c 516b 0ebe e154 81bc 57fb cdbc
00000020: a94a 05bd f6e3 7cbd 51f3 04bd d0ef 45bc
00000030: 5b1c 8b3d a0bf 803c d71f 1dbd 43a3 67bd
00000040: f2c0 7ebd 2664 d7bd b66e 26bc 9eda ee3d
00000050: 292e d1bd dde4 89bd 059e 0f3d a92a cbbc
00000060: 9a87 a9bd bedb 483d bb2f 75bd 35b9 c3bd
00000070: 724b 3e3d 0884 9bbd a993 ea3d c905 39bc
00000080: c6b1 c23d 5f0d a93d eea4 c83d 31c0 50bd
00000090: bd26 fd3c 93f6 8f3a 3dbb ca3c e388 9e3d
000000a0: 3633 bc3d 8e69 013e 5c46 e63d 976b 483d
000000b0: 8ec0 823d f489 8bbd c71e 5a3d 4649 d93d
000000c0: f4cb 36bc 6a33 9bbd 0507 903d 8a24 00be
000000d0: 59c9 e7bd 5816 0e3c dcb7 1b3c 7410 0c3e
000000e0: 7cf6 3dbd 60d5 4f3c 74b4 1a3d 6e54 913d
000000f0: d777 0fbd 0777 f2bd 7c20 c73d ce84 cf3d
00000100: 87e6 c1bd aaed b43d 832e 073d 61dc f1bc
00000110: f9e7 6a3c d7a3 9d3d 73e0 1c3d be94 b0bd
00000120: 0ced 29bc b094 78bc 95ca 0f3d 3e07 9dbc
00000130: 3aa5 1a3d 2674 d2bd 3aa1 f83c 1033 203d
00000140: b831 98bd b983 9e3c df21 cdbd 914f cb3d
00000150: 2bf0 01bd 8e5a 42bd 74c4 b1bb 072b 68bd
00000160: 449a 243d f3ea aebd acdd 2abc 3285 03bc
00000170: c9a4 47bd 9b79 fcbc afa2 b13d b23c d3bb
00000180: 1c61 9d3d 9a7b 15bd 72ac 903d 8536 d2bd
00000190: 726a 85bd 5b11 d73c b261 023d a748 c6bc
000001a0: 036e 66bd ea56 9f3c 7eac f53d ad26 60bc
000001b0: 856f 633d 8633 7dbc 5748 5f3d 79e2 033d
000001c0: 374d e93c 414b a7bd 79a7 27bd 029a 473d
000001d0: 153d e53c 8e76 813b c570 fdbc 424d 373d
000001e0: 432e 11bd ce3f 6b3c d647 b73d 46d8 7b3d
000001f0: 5816 063d 20a8 813d acee 5ebd 2f4b 113d
00000200: c4c7 383d 2eb4 d33c 1117 483d a7b9 dfbd
00000210: c4ef 03bd 6c2e bc3d 7f93 123c 1f0b c43d
00000220: 066c a03c 701d 02bd 3a24 f3bc 1576 823d
00000230: 71f8 493d a974 09be 6ab0 47bd c070 093d
00000240: 2596 09bb faff d63c e04c 343c 8f33 fdbb
00000250: 4cf7 993d de54 e239 eb59 9a3d b4bc 06bd
00000260: 4abe 83bc dfda debd 3b3a d43d baff 83bc
00000270: db0d df3c e9ae 09bd 9808 5a3b b8f8 ddbd
00000280: a2c8 07bc 6031 823c 5c28 c53b 59e0 3fbc
00000290: 83c0 4abc c6c5 8fbc 9057 5bbc 8a53 483d
000002a0: 1e1c b23d 59ee e83c 1caa b8bc dcb8 babd
000002b0: e44f 08bc f80b f63c 3653 173d 1123 163c
000002c0: 93bb 0fbd bc11 30bd c17a 3d3d 93b0 bf3d
000002d0: d1da b33c 0418 4cbd ef6f a73d a44f 86bd
000002e0: 5a1a fe3a 54d2 073e 0be1 babd f44b 16bc
000002f0: c8ba 653d 6bfc cbbc 74a0 ecbc b135 86bd
00000300: 5434 86bd 93c2 9f3d 6a86 1d3d 7ef1 143d
00000310: e887 e1bc 5e33 8ebd a315 993c 21c2 71bd
00000320: baaa d2bd 9ce9 393d 8a2a 39bd 6ea7 97bd
00000330: 0872 a63d e040 c0bd 0960 03bd 1025 4dbd
00000340: b203 ea3c 4ab7 c6bb 9700 833c 663b f93c
00000350: d6e5 443d d2cf 1b3e ca90 1c3d ec5d 1ebb
00000360: b847 da39 e9fd 233d 9a4d 433c 2dfd 013d
00000370: e114 53bd 4d5d 89bd 5000 2fbc abf9 44bd
00000380: af32 24bc 60ba cebc b61c 653d 009a e4bd
00000390: 8042 78bd bf06 9c3d b647 60bd 2e6c 6ebc
000003a0: bd0f d23d 2f86 db3d 126c 2abd f34b ebbd
000003b0: e39d 17bd 04cd 4a3d 5895 053e 1479 813c
000003c0: 2539 70bc 29c8 8dbc 2a5a 93bd 37d0 5a3c
000003d0: 98b6 ba3b c5af d0bb 582a abbd 31f8 8f3d
000003e0: df9a 443c 5cf7 f53c 96b1 b6bc ba50 043d
000003f0: 147e 2bbc d140 8fbd 1dc9 623d 2287 e8bc

h3.weight f4 [11, 128]
0.2534244 -0.30255264 0.28227156 0.23701961 0.01766769 -0.018662704 -0.2993812 0.1382659
-0.260227 -0.2109929 -0.007247031 -0.043778397 0.10438584 -0.0039961147 -0.20400573 0.19908562
0.28790572 0.08918805 0.15397185 0.12365823 -0.050764825 -0.24393229 -0.20742644 0.07762698
-0.041476287 -0.1473931 0.1872076 0.27423233 -0.23182148 -0.26162636 0.28730246 -0.20845382
-0.090133354 -0.24957111 0.13548432 -0.09125486 0.13645265 -0.17431737 -0.26020777 0.24046636
0.10238208 -0.12101326 0.23262547 -0.021934515 0.09580725 0.16247103 0.21658885 -0.22602555
0.21857981 -0.18115036 0.01767287 0.093840994 -0.23698527 0.22988424 -0.3363918 -0.24358967
-0.06596099 -0.16821682 0.019871632 0.05998312 -0.17886177 -0.26870432 0.2421548 0.18321456
0.23807505 0.14957307 -0.17226566 -0.04664709 0.081296824 -0.0074085277 -0.102067396 -0.05758792
-0.05898034 0.21794541 -0.030203978 0.13653095 -0.17093301 0.22207542 0.20990536 -0.23304722
-0.11451166 -0.16257605 0.2988317 0.08735028 0.102146536 -0.07148804 -0.10817523 0.117773764
0.12495779 -0.114881404 -0.27530107 0.04843273 0.28063536 0.17040193 -0.08294262 0.13507348
0.07622148 -0.034321513 0.2633207 0.087788284 -0.02514943 0.22025633 0.039958566 0.20833255
0.18933538 0.15245031 0.19164956 -0.2542383 -0.24956177 -0.19077928 0.029901415 -0.18252042
0.030587588 0.12696064 0.12585618 0.35158187 0.316632 -0.23078538 0.29022577 -0.18022272
-0.18585698 -0.21129516 -0.06564904 0.009815188 -0.20820132 0.19298661 0.2086833 0.26400825
-0.15187171 -0.06400661 0.074769855 0.23443694 -0.022413705 -0.0045630094 0.1502358 0.12297458
-0.1879083 0.19256876 0.14544603 -0.031950768 0.031467013 0.037790082 -0.08122973 0.054603994
0.26347715 0.2812236 0.15909344 0.08131798 -0.05501797 0.11085496 -0.22696675 0.15223888
-0.09224034 -0.22143789 0.25207013 -0.119834416 0.070393056 -0.23155679 0.2743565 -0.23794037
-0.23184486 -0.09313852 0.21891649 -0.121552885 0.07406992 -0.15629973 0.12815978 0.23416294
-0.17078505 0.25660568 0.24775077 -0.22895059 0.09441108 0.04930099 0.24045904 0.10424204
-0.26798645 0.27635962 0.21521397 0.12650236 0.20406641 -0.048185103 -0.28991517 0.13814442
-0.08716126 0.24456312 -0.13375624 -0.3188436 0.16044049 0.18560779 -0.22203746 -0.30331415
0.20182183 -0.1937103 -0.13531885 0.231315 -0.028350366 -0.011546134 0.2611422 0.26740173
0.24073248 -0.24524651 0.25585353 0.20975976 -0.19106424 -0.20842384 0.13304959 0.24107143
-0.19005492 -0.14099605 0.29972407 -0.0018243337 0.033326928 -0.15196106 -0.04457834 0.3785759
0.29479316 -0.092841476 -0.3139616 0.15335108 0.2706369 0.20664035 0.20374498 0.12271672
-0.28668085 -0.09773546 0.08117166 0.117331035 -0.01657541 -0.11289132 -0.31166524 0.15953249
0.19621377 0.14274126 -0.014151227 -0.2939877 -0.2480406 -0.19975969 -0.019700356 0.24766783
0.022843448 -0.15902363 0.26886874 -0.024350755 -0.1496348 -0.08608861 -0.08441758 0.2133311
0.02044841 -0.1848904 -0.11881254 0.040150806 -0.059893593 0.124556474 0.27619866 0.13513413
00000000: d8c0 813e 2ee8 9abe e685 903e 45b5 723e
00000010: d5bb 903c 87e2 98bc 7e48 99be 9395 0d3e
00000020: 793c 85be 860e 58be 8178 edbb fa50 33bd
00000030: 3ec8 d53d d7f1 82bb e1e6 50be 1add 4b3e
00000040: 6168 933e 39a8 b63d ccaa 1d3e 8740 fd3d
00000050: c7ee 4fbd 63c9 79be 9967 54be e5fa 9e3d
00000060: 0ae3 29bd 38ee 16be 59b3 3f3e 2e68 8c3e
00000070: 9c62 6dbe e4f3 85be 4f19 933e eb74 55be
00000080: d697 b8bd 928f 7fbe 67bc 0a3e d4e3 babd
00000090: 3eba 0b3e 4180 32be f439 85be d03c 763e
000000a0: b2ad d13d cdd5 f7bd 5f35 6e3e 03b0 b3bc
000000b0: 9736 c43d ce5e 263e 78c9 5d3e 3e73 67be
000000c0: 63d3 5f3e 7b7f 39be b2c6 903c b52f c03d
000000d0: 44ac 72be c666 6b3e 8c3b acbe 926f 79be
000000e0: 8e16 87bd 0841 2cbe d5c9 a23c dcb0 753d
000000f0: 8a27 37be 9d93 89be 6ef7 773e 999c 3b3e
00000100: f2c9 733e af29 193e 6966 30be 0511 3fbd
00000110: f37e a63d 3cc3 f2bb b608 d1bd 50e1 6bbd
00000120: 5e95 71bd 152d 5f3e 556e f7bc c5ce 0b3e
00000130: 1009 2fbe bd67 633e 6ef1 563e eea3 6ebe
00000140: 1785 eabd 567a 26be 7800 993e b4e4 b23d
00000150: 3432 d13d 5268 92bd fa8a ddbd 5f33 f13d
00000160: dfe9 ff3d f146 ebbd 43f4 8cbe 6661 463d
00000170: 70af 8f3e d87d 2e3e d2dd a9bd b450 0a3e
00000180: 021a 9c3d b794 0cbd f9d1 863e 58ca b33d
00000190: 2d06 cebc e08a 613e 98ab 233d 2155 553e
000001a0: 22e1 413e ef1b 1c3e c83f 443e 862b 82be
000001b0: 1f8d 7fbe a55b 43be d0f3 f43c a2e6 3abe
000001c0: d292 fa3c f801 023e 71e0 003e 8a02 b43e
000001d0: 971d a23e 0153 6cbe 7998 943e 4e8c 38be
000001e0: 4b51 3ebe c25d 58be 0173 86bd e2cf 203c
000001f0: ba32 55be 489e 453e 13b1 553e 172c 873e
00000200: 4284 1bbe e615 83bd f020 993d 3d10 703e
00000210: f29c b7bc 4c85 95bb 6ad7 193e 19da fb3d
00000220: 096b 40be bf30 453e ceef 143e cfde 02bd
00000230: 8ee3 003d c6c9 1a3d c65b a6bd 70a8 5f3d
00000240: 7ae6 863e 8afc 8f3e 64e9 223e 0b8a a63d
00000250: 865a 61bd ed07 e33d f969 68be 82e4 1b3e
00000260: 81e8 bcbd 9dc0 62be 560f 813e bf6b f5bd
00000270: 3c2a 903d 391d 6dbe 7578 8c3e a4a6 73be
00000280: bd68 6dbe 69bf bebd a52b 603e b8f0 f8bd
00000290: f8b1 973d 090d 20be 513c 033e 69c8 6f3e
000002a0: 47e2 2ebe d261 833e 61b2 7d3e 0672 6abe
000002b0: 995a c13d d6ef 493d e53a 763e da7c d53d
000002c0: 8535 89be 027f 8d3e 0d61 5c3e d689 013e
000002d0: c9f6 503e be5d 45bd c36f 94be bb75 0d3e
000002e0: 9a81 b2bd c16e 7a3e 65f7 08be 783f a3be
000002f0: 834a 243e f80f 3e3e ca5d 63be fe4b 9bbe
00000300: 62aa 4e3e fe5b 46be 0691 0abe d7dd 6c3e
00000310: 073f e8bc ff2b 3dbc 6eb4 853e e1e8 883e
00000320: 9382 763e e721 7bbe 3cff 823e 43cb 563e
00000330: 58a6 43be 0f6d 55be 273e 083e 6edb 763e
00000340: c29d 42be 4561 10be 6f75 993e 7b1e efba
00000350: d181 083d ae9b 1bbe c797 36bd b3d4 c13e
00000360: 21ef 963e ac23 bebd 93bf a0be 1108 1d3e
00000370: eb90 8a3e 8799 533e 86a2 503e e752 fb3d
00000380: d5c7 92be 8729 c8bd 543d a63d 414b f03d
00000390: 27c9 87bc 9033 e7bd 9692 9fbe 7c5c 233e
000003a0: 43ec 483e c42a 123e 8cda 67bc 8e85 96be
000003b0: 5bfe 7dbe ce8d 4cbe a462 a1bc a39c 7d3e
000003c0: 2f22 bb3c 17d7 22be 2aa9 893e 3c7b c7bc
000003d0: dd39 19be 3a4f b0bd 20e3 acbd 7873 5a3e
000003e0: 6d83 a73c e953 3dbe fd53 f3bd 2c75 243d
000003f0: fc52 75bd 7717 ff3d e969 8d3e 9a60 0a3e
